<?xml version="1.0"?>
<net name="torch_jit" version="11">
	<layers>
		<layer id="0" name="input.1" type="Parameter" version="opset1">
			<data shape="32,3,112,112" element_type="f32" />
			<output>
				<port id="0" precision="FP32" names="input.1">
					<dim>32</dim>
					<dim>3</dim>
					<dim>112</dim>
					<dim>112</dim>
				</port>
			</output>
		</layer>
		<layer id="1" name="onnx::Conv_507" type="Const" version="opset1">
			<data element_type="f32" shape="64, 3, 7, 7" offset="0" size="37632" />
			<output>
				<port id="0" precision="FP32" names="onnx::Conv_507">
					<dim>64</dim>
					<dim>3</dim>
					<dim>7</dim>
					<dim>7</dim>
				</port>
			</output>
		</layer>
		<layer id="2" name="/model/conv1/Conv/WithoutBiases" type="Convolution" version="opset1">
			<data strides="2, 2" dilations="1, 1" pads_begin="3, 3" pads_end="3, 3" auto_pad="explicit" />
			<input>
				<port id="0" precision="FP32">
					<dim>32</dim>
					<dim>3</dim>
					<dim>112</dim>
					<dim>112</dim>
				</port>
				<port id="1" precision="FP32">
					<dim>64</dim>
					<dim>3</dim>
					<dim>7</dim>
					<dim>7</dim>
				</port>
			</input>
			<output>
				<port id="2" precision="FP32">
					<dim>32</dim>
					<dim>64</dim>
					<dim>56</dim>
					<dim>56</dim>
				</port>
			</output>
		</layer>
		<layer id="3" name="Reshape_127" type="Const" version="opset1">
			<data element_type="f32" shape="1, 64, 1, 1" offset="37632" size="256" />
			<output>
				<port id="0" precision="FP32">
					<dim>1</dim>
					<dim>64</dim>
					<dim>1</dim>
					<dim>1</dim>
				</port>
			</output>
		</layer>
		<layer id="4" name="/model/conv1/Conv" type="Add" version="opset1">
			<data auto_broadcast="numpy" />
			<input>
				<port id="0" precision="FP32">
					<dim>32</dim>
					<dim>64</dim>
					<dim>56</dim>
					<dim>56</dim>
				</port>
				<port id="1" precision="FP32">
					<dim>1</dim>
					<dim>64</dim>
					<dim>1</dim>
					<dim>1</dim>
				</port>
			</input>
			<output>
				<port id="2" precision="FP32" names="/model/conv1/Conv_output_0">
					<dim>32</dim>
					<dim>64</dim>
					<dim>56</dim>
					<dim>56</dim>
				</port>
			</output>
		</layer>
		<layer id="5" name="/model/relu/Relu" type="ReLU" version="opset1">
			<input>
				<port id="0" precision="FP32">
					<dim>32</dim>
					<dim>64</dim>
					<dim>56</dim>
					<dim>56</dim>
				</port>
			</input>
			<output>
				<port id="1" precision="FP32" names="/model/relu/Relu_output_0">
					<dim>32</dim>
					<dim>64</dim>
					<dim>56</dim>
					<dim>56</dim>
				</port>
			</output>
		</layer>
		<layer id="6" name="/model/maxpool/MaxPool" type="MaxPool" version="opset8">
			<data strides="2, 2" dilations="1, 1" pads_begin="1, 1" pads_end="1, 1" kernel="3, 3" rounding_type="floor" auto_pad="explicit" index_element_type="i64" axis="0" />
			<input>
				<port id="0" precision="FP32">
					<dim>32</dim>
					<dim>64</dim>
					<dim>56</dim>
					<dim>56</dim>
				</port>
			</input>
			<output>
				<port id="1" precision="FP32" names="/model/maxpool/MaxPool_output_0">
					<dim>32</dim>
					<dim>64</dim>
					<dim>28</dim>
					<dim>28</dim>
				</port>
				<port id="2" precision="I64">
					<dim>32</dim>
					<dim>64</dim>
					<dim>28</dim>
					<dim>28</dim>
				</port>
			</output>
		</layer>
		<layer id="7" name="onnx::Conv_510" type="Const" version="opset1">
			<data element_type="f32" shape="64, 64, 1, 1" offset="37888" size="16384" />
			<output>
				<port id="0" precision="FP32" names="onnx::Conv_510">
					<dim>64</dim>
					<dim>64</dim>
					<dim>1</dim>
					<dim>1</dim>
				</port>
			</output>
		</layer>
		<layer id="8" name="/model/layer1/layer1.0/conv1/Conv/WithoutBiases" type="Convolution" version="opset1">
			<data strides="1, 1" dilations="1, 1" pads_begin="0, 0" pads_end="0, 0" auto_pad="explicit" />
			<input>
				<port id="0" precision="FP32">
					<dim>32</dim>
					<dim>64</dim>
					<dim>28</dim>
					<dim>28</dim>
				</port>
				<port id="1" precision="FP32">
					<dim>64</dim>
					<dim>64</dim>
					<dim>1</dim>
					<dim>1</dim>
				</port>
			</input>
			<output>
				<port id="2" precision="FP32">
					<dim>32</dim>
					<dim>64</dim>
					<dim>28</dim>
					<dim>28</dim>
				</port>
			</output>
		</layer>
		<layer id="9" name="Reshape_144" type="Const" version="opset1">
			<data element_type="f32" shape="1, 64, 1, 1" offset="54272" size="256" />
			<output>
				<port id="0" precision="FP32">
					<dim>1</dim>
					<dim>64</dim>
					<dim>1</dim>
					<dim>1</dim>
				</port>
			</output>
		</layer>
		<layer id="10" name="/model/layer1/layer1.0/conv1/Conv" type="Add" version="opset1">
			<data auto_broadcast="numpy" />
			<input>
				<port id="0" precision="FP32">
					<dim>32</dim>
					<dim>64</dim>
					<dim>28</dim>
					<dim>28</dim>
				</port>
				<port id="1" precision="FP32">
					<dim>1</dim>
					<dim>64</dim>
					<dim>1</dim>
					<dim>1</dim>
				</port>
			</input>
			<output>
				<port id="2" precision="FP32" names="/model/layer1/layer1.0/conv1/Conv_output_0">
					<dim>32</dim>
					<dim>64</dim>
					<dim>28</dim>
					<dim>28</dim>
				</port>
			</output>
		</layer>
		<layer id="11" name="/model/layer1/layer1.0/relu/Relu" type="ReLU" version="opset1">
			<input>
				<port id="0" precision="FP32">
					<dim>32</dim>
					<dim>64</dim>
					<dim>28</dim>
					<dim>28</dim>
				</port>
			</input>
			<output>
				<port id="1" precision="FP32" names="/model/layer1/layer1.0/relu/Relu_output_0">
					<dim>32</dim>
					<dim>64</dim>
					<dim>28</dim>
					<dim>28</dim>
				</port>
			</output>
		</layer>
		<layer id="12" name="onnx::Conv_513" type="Const" version="opset1">
			<data element_type="f32" shape="64, 64, 3, 3" offset="54528" size="147456" />
			<output>
				<port id="0" precision="FP32" names="onnx::Conv_513">
					<dim>64</dim>
					<dim>64</dim>
					<dim>3</dim>
					<dim>3</dim>
				</port>
			</output>
		</layer>
		<layer id="13" name="/model/layer1/layer1.0/conv2/Conv/WithoutBiases" type="Convolution" version="opset1">
			<data strides="1, 1" dilations="1, 1" pads_begin="1, 1" pads_end="1, 1" auto_pad="explicit" />
			<input>
				<port id="0" precision="FP32">
					<dim>32</dim>
					<dim>64</dim>
					<dim>28</dim>
					<dim>28</dim>
				</port>
				<port id="1" precision="FP32">
					<dim>64</dim>
					<dim>64</dim>
					<dim>3</dim>
					<dim>3</dim>
				</port>
			</input>
			<output>
				<port id="2" precision="FP32">
					<dim>32</dim>
					<dim>64</dim>
					<dim>28</dim>
					<dim>28</dim>
				</port>
			</output>
		</layer>
		<layer id="14" name="Reshape_160" type="Const" version="opset1">
			<data element_type="f32" shape="1, 64, 1, 1" offset="201984" size="256" />
			<output>
				<port id="0" precision="FP32">
					<dim>1</dim>
					<dim>64</dim>
					<dim>1</dim>
					<dim>1</dim>
				</port>
			</output>
		</layer>
		<layer id="15" name="/model/layer1/layer1.0/conv2/Conv" type="Add" version="opset1">
			<data auto_broadcast="numpy" />
			<input>
				<port id="0" precision="FP32">
					<dim>32</dim>
					<dim>64</dim>
					<dim>28</dim>
					<dim>28</dim>
				</port>
				<port id="1" precision="FP32">
					<dim>1</dim>
					<dim>64</dim>
					<dim>1</dim>
					<dim>1</dim>
				</port>
			</input>
			<output>
				<port id="2" precision="FP32" names="/model/layer1/layer1.0/conv2/Conv_output_0">
					<dim>32</dim>
					<dim>64</dim>
					<dim>28</dim>
					<dim>28</dim>
				</port>
			</output>
		</layer>
		<layer id="16" name="/model/layer1/layer1.0/relu_1/Relu" type="ReLU" version="opset1">
			<input>
				<port id="0" precision="FP32">
					<dim>32</dim>
					<dim>64</dim>
					<dim>28</dim>
					<dim>28</dim>
				</port>
			</input>
			<output>
				<port id="1" precision="FP32" names="/model/layer1/layer1.0/relu_1/Relu_output_0">
					<dim>32</dim>
					<dim>64</dim>
					<dim>28</dim>
					<dim>28</dim>
				</port>
			</output>
		</layer>
		<layer id="17" name="onnx::Conv_516" type="Const" version="opset1">
			<data element_type="f32" shape="256, 64, 1, 1" offset="202240" size="65536" />
			<output>
				<port id="0" precision="FP32" names="onnx::Conv_516">
					<dim>256</dim>
					<dim>64</dim>
					<dim>1</dim>
					<dim>1</dim>
				</port>
			</output>
		</layer>
		<layer id="18" name="/model/layer1/layer1.0/conv3/Conv/WithoutBiases" type="Convolution" version="opset1">
			<data strides="1, 1" dilations="1, 1" pads_begin="0, 0" pads_end="0, 0" auto_pad="explicit" />
			<input>
				<port id="0" precision="FP32">
					<dim>32</dim>
					<dim>64</dim>
					<dim>28</dim>
					<dim>28</dim>
				</port>
				<port id="1" precision="FP32">
					<dim>256</dim>
					<dim>64</dim>
					<dim>1</dim>
					<dim>1</dim>
				</port>
			</input>
			<output>
				<port id="2" precision="FP32">
					<dim>32</dim>
					<dim>256</dim>
					<dim>28</dim>
					<dim>28</dim>
				</port>
			</output>
		</layer>
		<layer id="19" name="Reshape_176" type="Const" version="opset1">
			<data element_type="f32" shape="1, 256, 1, 1" offset="267776" size="1024" />
			<output>
				<port id="0" precision="FP32">
					<dim>1</dim>
					<dim>256</dim>
					<dim>1</dim>
					<dim>1</dim>
				</port>
			</output>
		</layer>
		<layer id="20" name="/model/layer1/layer1.0/conv3/Conv" type="Add" version="opset1">
			<data auto_broadcast="numpy" />
			<input>
				<port id="0" precision="FP32">
					<dim>32</dim>
					<dim>256</dim>
					<dim>28</dim>
					<dim>28</dim>
				</port>
				<port id="1" precision="FP32">
					<dim>1</dim>
					<dim>256</dim>
					<dim>1</dim>
					<dim>1</dim>
				</port>
			</input>
			<output>
				<port id="2" precision="FP32" names="/model/layer1/layer1.0/conv3/Conv_output_0">
					<dim>32</dim>
					<dim>256</dim>
					<dim>28</dim>
					<dim>28</dim>
				</port>
			</output>
		</layer>
		<layer id="21" name="onnx::Conv_519" type="Const" version="opset1">
			<data element_type="f32" shape="256, 64, 1, 1" offset="268800" size="65536" />
			<output>
				<port id="0" precision="FP32" names="onnx::Conv_519">
					<dim>256</dim>
					<dim>64</dim>
					<dim>1</dim>
					<dim>1</dim>
				</port>
			</output>
		</layer>
		<layer id="22" name="/model/layer1/layer1.0/downsample/downsample.0/Conv/WithoutBiases" type="Convolution" version="opset1">
			<data strides="1, 1" dilations="1, 1" pads_begin="0, 0" pads_end="0, 0" auto_pad="explicit" />
			<input>
				<port id="0" precision="FP32">
					<dim>32</dim>
					<dim>64</dim>
					<dim>28</dim>
					<dim>28</dim>
				</port>
				<port id="1" precision="FP32">
					<dim>256</dim>
					<dim>64</dim>
					<dim>1</dim>
					<dim>1</dim>
				</port>
			</input>
			<output>
				<port id="2" precision="FP32">
					<dim>32</dim>
					<dim>256</dim>
					<dim>28</dim>
					<dim>28</dim>
				</port>
			</output>
		</layer>
		<layer id="23" name="Reshape_191" type="Const" version="opset1">
			<data element_type="f32" shape="1, 256, 1, 1" offset="334336" size="1024" />
			<output>
				<port id="0" precision="FP32">
					<dim>1</dim>
					<dim>256</dim>
					<dim>1</dim>
					<dim>1</dim>
				</port>
			</output>
		</layer>
		<layer id="24" name="/model/layer1/layer1.0/downsample/downsample.0/Conv" type="Add" version="opset1">
			<data auto_broadcast="numpy" />
			<input>
				<port id="0" precision="FP32">
					<dim>32</dim>
					<dim>256</dim>
					<dim>28</dim>
					<dim>28</dim>
				</port>
				<port id="1" precision="FP32">
					<dim>1</dim>
					<dim>256</dim>
					<dim>1</dim>
					<dim>1</dim>
				</port>
			</input>
			<output>
				<port id="2" precision="FP32" names="/model/layer1/layer1.0/downsample/downsample.0/Conv_output_0">
					<dim>32</dim>
					<dim>256</dim>
					<dim>28</dim>
					<dim>28</dim>
				</port>
			</output>
		</layer>
		<layer id="25" name="/model/layer1/layer1.0/Add" type="Add" version="opset1">
			<data auto_broadcast="numpy" />
			<input>
				<port id="0" precision="FP32">
					<dim>32</dim>
					<dim>256</dim>
					<dim>28</dim>
					<dim>28</dim>
				</port>
				<port id="1" precision="FP32">
					<dim>32</dim>
					<dim>256</dim>
					<dim>28</dim>
					<dim>28</dim>
				</port>
			</input>
			<output>
				<port id="2" precision="FP32" names="/model/layer1/layer1.0/Add_output_0">
					<dim>32</dim>
					<dim>256</dim>
					<dim>28</dim>
					<dim>28</dim>
				</port>
			</output>
		</layer>
		<layer id="26" name="/model/layer1/layer1.0/relu_2/Relu" type="ReLU" version="opset1">
			<input>
				<port id="0" precision="FP32">
					<dim>32</dim>
					<dim>256</dim>
					<dim>28</dim>
					<dim>28</dim>
				</port>
			</input>
			<output>
				<port id="1" precision="FP32" names="/model/layer1/layer1.0/relu_2/Relu_output_0">
					<dim>32</dim>
					<dim>256</dim>
					<dim>28</dim>
					<dim>28</dim>
				</port>
			</output>
		</layer>
		<layer id="27" name="onnx::Conv_522" type="Const" version="opset1">
			<data element_type="f32" shape="64, 256, 1, 1" offset="335360" size="65536" />
			<output>
				<port id="0" precision="FP32" names="onnx::Conv_522">
					<dim>64</dim>
					<dim>256</dim>
					<dim>1</dim>
					<dim>1</dim>
				</port>
			</output>
		</layer>
		<layer id="28" name="/model/layer1/layer1.1/conv1/Conv/WithoutBiases" type="Convolution" version="opset1">
			<data strides="1, 1" dilations="1, 1" pads_begin="0, 0" pads_end="0, 0" auto_pad="explicit" />
			<input>
				<port id="0" precision="FP32">
					<dim>32</dim>
					<dim>256</dim>
					<dim>28</dim>
					<dim>28</dim>
				</port>
				<port id="1" precision="FP32">
					<dim>64</dim>
					<dim>256</dim>
					<dim>1</dim>
					<dim>1</dim>
				</port>
			</input>
			<output>
				<port id="2" precision="FP32">
					<dim>32</dim>
					<dim>64</dim>
					<dim>28</dim>
					<dim>28</dim>
				</port>
			</output>
		</layer>
		<layer id="29" name="Reshape_208" type="Const" version="opset1">
			<data element_type="f32" shape="1, 64, 1, 1" offset="400896" size="256" />
			<output>
				<port id="0" precision="FP32">
					<dim>1</dim>
					<dim>64</dim>
					<dim>1</dim>
					<dim>1</dim>
				</port>
			</output>
		</layer>
		<layer id="30" name="/model/layer1/layer1.1/conv1/Conv" type="Add" version="opset1">
			<data auto_broadcast="numpy" />
			<input>
				<port id="0" precision="FP32">
					<dim>32</dim>
					<dim>64</dim>
					<dim>28</dim>
					<dim>28</dim>
				</port>
				<port id="1" precision="FP32">
					<dim>1</dim>
					<dim>64</dim>
					<dim>1</dim>
					<dim>1</dim>
				</port>
			</input>
			<output>
				<port id="2" precision="FP32" names="/model/layer1/layer1.1/conv1/Conv_output_0">
					<dim>32</dim>
					<dim>64</dim>
					<dim>28</dim>
					<dim>28</dim>
				</port>
			</output>
		</layer>
		<layer id="31" name="/model/layer1/layer1.1/relu/Relu" type="ReLU" version="opset1">
			<input>
				<port id="0" precision="FP32">
					<dim>32</dim>
					<dim>64</dim>
					<dim>28</dim>
					<dim>28</dim>
				</port>
			</input>
			<output>
				<port id="1" precision="FP32" names="/model/layer1/layer1.1/relu/Relu_output_0">
					<dim>32</dim>
					<dim>64</dim>
					<dim>28</dim>
					<dim>28</dim>
				</port>
			</output>
		</layer>
		<layer id="32" name="onnx::Conv_525" type="Const" version="opset1">
			<data element_type="f32" shape="64, 64, 3, 3" offset="401152" size="147456" />
			<output>
				<port id="0" precision="FP32" names="onnx::Conv_525">
					<dim>64</dim>
					<dim>64</dim>
					<dim>3</dim>
					<dim>3</dim>
				</port>
			</output>
		</layer>
		<layer id="33" name="/model/layer1/layer1.1/conv2/Conv/WithoutBiases" type="Convolution" version="opset1">
			<data strides="1, 1" dilations="1, 1" pads_begin="1, 1" pads_end="1, 1" auto_pad="explicit" />
			<input>
				<port id="0" precision="FP32">
					<dim>32</dim>
					<dim>64</dim>
					<dim>28</dim>
					<dim>28</dim>
				</port>
				<port id="1" precision="FP32">
					<dim>64</dim>
					<dim>64</dim>
					<dim>3</dim>
					<dim>3</dim>
				</port>
			</input>
			<output>
				<port id="2" precision="FP32">
					<dim>32</dim>
					<dim>64</dim>
					<dim>28</dim>
					<dim>28</dim>
				</port>
			</output>
		</layer>
		<layer id="34" name="Reshape_224" type="Const" version="opset1">
			<data element_type="f32" shape="1, 64, 1, 1" offset="548608" size="256" />
			<output>
				<port id="0" precision="FP32">
					<dim>1</dim>
					<dim>64</dim>
					<dim>1</dim>
					<dim>1</dim>
				</port>
			</output>
		</layer>
		<layer id="35" name="/model/layer1/layer1.1/conv2/Conv" type="Add" version="opset1">
			<data auto_broadcast="numpy" />
			<input>
				<port id="0" precision="FP32">
					<dim>32</dim>
					<dim>64</dim>
					<dim>28</dim>
					<dim>28</dim>
				</port>
				<port id="1" precision="FP32">
					<dim>1</dim>
					<dim>64</dim>
					<dim>1</dim>
					<dim>1</dim>
				</port>
			</input>
			<output>
				<port id="2" precision="FP32" names="/model/layer1/layer1.1/conv2/Conv_output_0">
					<dim>32</dim>
					<dim>64</dim>
					<dim>28</dim>
					<dim>28</dim>
				</port>
			</output>
		</layer>
		<layer id="36" name="/model/layer1/layer1.1/relu_1/Relu" type="ReLU" version="opset1">
			<input>
				<port id="0" precision="FP32">
					<dim>32</dim>
					<dim>64</dim>
					<dim>28</dim>
					<dim>28</dim>
				</port>
			</input>
			<output>
				<port id="1" precision="FP32" names="/model/layer1/layer1.1/relu_1/Relu_output_0">
					<dim>32</dim>
					<dim>64</dim>
					<dim>28</dim>
					<dim>28</dim>
				</port>
			</output>
		</layer>
		<layer id="37" name="onnx::Conv_528" type="Const" version="opset1">
			<data element_type="f32" shape="256, 64, 1, 1" offset="548864" size="65536" />
			<output>
				<port id="0" precision="FP32" names="onnx::Conv_528">
					<dim>256</dim>
					<dim>64</dim>
					<dim>1</dim>
					<dim>1</dim>
				</port>
			</output>
		</layer>
		<layer id="38" name="/model/layer1/layer1.1/conv3/Conv/WithoutBiases" type="Convolution" version="opset1">
			<data strides="1, 1" dilations="1, 1" pads_begin="0, 0" pads_end="0, 0" auto_pad="explicit" />
			<input>
				<port id="0" precision="FP32">
					<dim>32</dim>
					<dim>64</dim>
					<dim>28</dim>
					<dim>28</dim>
				</port>
				<port id="1" precision="FP32">
					<dim>256</dim>
					<dim>64</dim>
					<dim>1</dim>
					<dim>1</dim>
				</port>
			</input>
			<output>
				<port id="2" precision="FP32">
					<dim>32</dim>
					<dim>256</dim>
					<dim>28</dim>
					<dim>28</dim>
				</port>
			</output>
		</layer>
		<layer id="39" name="Reshape_240" type="Const" version="opset1">
			<data element_type="f32" shape="1, 256, 1, 1" offset="614400" size="1024" />
			<output>
				<port id="0" precision="FP32">
					<dim>1</dim>
					<dim>256</dim>
					<dim>1</dim>
					<dim>1</dim>
				</port>
			</output>
		</layer>
		<layer id="40" name="/model/layer1/layer1.1/conv3/Conv" type="Add" version="opset1">
			<data auto_broadcast="numpy" />
			<input>
				<port id="0" precision="FP32">
					<dim>32</dim>
					<dim>256</dim>
					<dim>28</dim>
					<dim>28</dim>
				</port>
				<port id="1" precision="FP32">
					<dim>1</dim>
					<dim>256</dim>
					<dim>1</dim>
					<dim>1</dim>
				</port>
			</input>
			<output>
				<port id="2" precision="FP32" names="/model/layer1/layer1.1/conv3/Conv_output_0">
					<dim>32</dim>
					<dim>256</dim>
					<dim>28</dim>
					<dim>28</dim>
				</port>
			</output>
		</layer>
		<layer id="41" name="/model/layer1/layer1.1/Add" type="Add" version="opset1">
			<data auto_broadcast="numpy" />
			<input>
				<port id="0" precision="FP32">
					<dim>32</dim>
					<dim>256</dim>
					<dim>28</dim>
					<dim>28</dim>
				</port>
				<port id="1" precision="FP32">
					<dim>32</dim>
					<dim>256</dim>
					<dim>28</dim>
					<dim>28</dim>
				</port>
			</input>
			<output>
				<port id="2" precision="FP32" names="/model/layer1/layer1.1/Add_output_0">
					<dim>32</dim>
					<dim>256</dim>
					<dim>28</dim>
					<dim>28</dim>
				</port>
			</output>
		</layer>
		<layer id="42" name="/model/layer1/layer1.1/relu_2/Relu" type="ReLU" version="opset1">
			<input>
				<port id="0" precision="FP32">
					<dim>32</dim>
					<dim>256</dim>
					<dim>28</dim>
					<dim>28</dim>
				</port>
			</input>
			<output>
				<port id="1" precision="FP32" names="/model/layer1/layer1.1/relu_2/Relu_output_0">
					<dim>32</dim>
					<dim>256</dim>
					<dim>28</dim>
					<dim>28</dim>
				</port>
			</output>
		</layer>
		<layer id="43" name="onnx::Conv_531" type="Const" version="opset1">
			<data element_type="f32" shape="64, 256, 1, 1" offset="615424" size="65536" />
			<output>
				<port id="0" precision="FP32" names="onnx::Conv_531">
					<dim>64</dim>
					<dim>256</dim>
					<dim>1</dim>
					<dim>1</dim>
				</port>
			</output>
		</layer>
		<layer id="44" name="/model/layer1/layer1.2/conv1/Conv/WithoutBiases" type="Convolution" version="opset1">
			<data strides="1, 1" dilations="1, 1" pads_begin="0, 0" pads_end="0, 0" auto_pad="explicit" />
			<input>
				<port id="0" precision="FP32">
					<dim>32</dim>
					<dim>256</dim>
					<dim>28</dim>
					<dim>28</dim>
				</port>
				<port id="1" precision="FP32">
					<dim>64</dim>
					<dim>256</dim>
					<dim>1</dim>
					<dim>1</dim>
				</port>
			</input>
			<output>
				<port id="2" precision="FP32">
					<dim>32</dim>
					<dim>64</dim>
					<dim>28</dim>
					<dim>28</dim>
				</port>
			</output>
		</layer>
		<layer id="45" name="Reshape_257" type="Const" version="opset1">
			<data element_type="f32" shape="1, 64, 1, 1" offset="680960" size="256" />
			<output>
				<port id="0" precision="FP32">
					<dim>1</dim>
					<dim>64</dim>
					<dim>1</dim>
					<dim>1</dim>
				</port>
			</output>
		</layer>
		<layer id="46" name="/model/layer1/layer1.2/conv1/Conv" type="Add" version="opset1">
			<data auto_broadcast="numpy" />
			<input>
				<port id="0" precision="FP32">
					<dim>32</dim>
					<dim>64</dim>
					<dim>28</dim>
					<dim>28</dim>
				</port>
				<port id="1" precision="FP32">
					<dim>1</dim>
					<dim>64</dim>
					<dim>1</dim>
					<dim>1</dim>
				</port>
			</input>
			<output>
				<port id="2" precision="FP32" names="/model/layer1/layer1.2/conv1/Conv_output_0">
					<dim>32</dim>
					<dim>64</dim>
					<dim>28</dim>
					<dim>28</dim>
				</port>
			</output>
		</layer>
		<layer id="47" name="/model/layer1/layer1.2/relu/Relu" type="ReLU" version="opset1">
			<input>
				<port id="0" precision="FP32">
					<dim>32</dim>
					<dim>64</dim>
					<dim>28</dim>
					<dim>28</dim>
				</port>
			</input>
			<output>
				<port id="1" precision="FP32" names="/model/layer1/layer1.2/relu/Relu_output_0">
					<dim>32</dim>
					<dim>64</dim>
					<dim>28</dim>
					<dim>28</dim>
				</port>
			</output>
		</layer>
		<layer id="48" name="onnx::Conv_534" type="Const" version="opset1">
			<data element_type="f32" shape="64, 64, 3, 3" offset="681216" size="147456" />
			<output>
				<port id="0" precision="FP32" names="onnx::Conv_534">
					<dim>64</dim>
					<dim>64</dim>
					<dim>3</dim>
					<dim>3</dim>
				</port>
			</output>
		</layer>
		<layer id="49" name="/model/layer1/layer1.2/conv2/Conv/WithoutBiases" type="Convolution" version="opset1">
			<data strides="1, 1" dilations="1, 1" pads_begin="1, 1" pads_end="1, 1" auto_pad="explicit" />
			<input>
				<port id="0" precision="FP32">
					<dim>32</dim>
					<dim>64</dim>
					<dim>28</dim>
					<dim>28</dim>
				</port>
				<port id="1" precision="FP32">
					<dim>64</dim>
					<dim>64</dim>
					<dim>3</dim>
					<dim>3</dim>
				</port>
			</input>
			<output>
				<port id="2" precision="FP32">
					<dim>32</dim>
					<dim>64</dim>
					<dim>28</dim>
					<dim>28</dim>
				</port>
			</output>
		</layer>
		<layer id="50" name="Reshape_273" type="Const" version="opset1">
			<data element_type="f32" shape="1, 64, 1, 1" offset="828672" size="256" />
			<output>
				<port id="0" precision="FP32">
					<dim>1</dim>
					<dim>64</dim>
					<dim>1</dim>
					<dim>1</dim>
				</port>
			</output>
		</layer>
		<layer id="51" name="/model/layer1/layer1.2/conv2/Conv" type="Add" version="opset1">
			<data auto_broadcast="numpy" />
			<input>
				<port id="0" precision="FP32">
					<dim>32</dim>
					<dim>64</dim>
					<dim>28</dim>
					<dim>28</dim>
				</port>
				<port id="1" precision="FP32">
					<dim>1</dim>
					<dim>64</dim>
					<dim>1</dim>
					<dim>1</dim>
				</port>
			</input>
			<output>
				<port id="2" precision="FP32" names="/model/layer1/layer1.2/conv2/Conv_output_0">
					<dim>32</dim>
					<dim>64</dim>
					<dim>28</dim>
					<dim>28</dim>
				</port>
			</output>
		</layer>
		<layer id="52" name="/model/layer1/layer1.2/relu_1/Relu" type="ReLU" version="opset1">
			<input>
				<port id="0" precision="FP32">
					<dim>32</dim>
					<dim>64</dim>
					<dim>28</dim>
					<dim>28</dim>
				</port>
			</input>
			<output>
				<port id="1" precision="FP32" names="/model/layer1/layer1.2/relu_1/Relu_output_0">
					<dim>32</dim>
					<dim>64</dim>
					<dim>28</dim>
					<dim>28</dim>
				</port>
			</output>
		</layer>
		<layer id="53" name="onnx::Conv_537" type="Const" version="opset1">
			<data element_type="f32" shape="256, 64, 1, 1" offset="828928" size="65536" />
			<output>
				<port id="0" precision="FP32" names="onnx::Conv_537">
					<dim>256</dim>
					<dim>64</dim>
					<dim>1</dim>
					<dim>1</dim>
				</port>
			</output>
		</layer>
		<layer id="54" name="/model/layer1/layer1.2/conv3/Conv/WithoutBiases" type="Convolution" version="opset1">
			<data strides="1, 1" dilations="1, 1" pads_begin="0, 0" pads_end="0, 0" auto_pad="explicit" />
			<input>
				<port id="0" precision="FP32">
					<dim>32</dim>
					<dim>64</dim>
					<dim>28</dim>
					<dim>28</dim>
				</port>
				<port id="1" precision="FP32">
					<dim>256</dim>
					<dim>64</dim>
					<dim>1</dim>
					<dim>1</dim>
				</port>
			</input>
			<output>
				<port id="2" precision="FP32">
					<dim>32</dim>
					<dim>256</dim>
					<dim>28</dim>
					<dim>28</dim>
				</port>
			</output>
		</layer>
		<layer id="55" name="Reshape_289" type="Const" version="opset1">
			<data element_type="f32" shape="1, 256, 1, 1" offset="894464" size="1024" />
			<output>
				<port id="0" precision="FP32">
					<dim>1</dim>
					<dim>256</dim>
					<dim>1</dim>
					<dim>1</dim>
				</port>
			</output>
		</layer>
		<layer id="56" name="/model/layer1/layer1.2/conv3/Conv" type="Add" version="opset1">
			<data auto_broadcast="numpy" />
			<input>
				<port id="0" precision="FP32">
					<dim>32</dim>
					<dim>256</dim>
					<dim>28</dim>
					<dim>28</dim>
				</port>
				<port id="1" precision="FP32">
					<dim>1</dim>
					<dim>256</dim>
					<dim>1</dim>
					<dim>1</dim>
				</port>
			</input>
			<output>
				<port id="2" precision="FP32" names="/model/layer1/layer1.2/conv3/Conv_output_0">
					<dim>32</dim>
					<dim>256</dim>
					<dim>28</dim>
					<dim>28</dim>
				</port>
			</output>
		</layer>
		<layer id="57" name="/model/layer1/layer1.2/Add" type="Add" version="opset1">
			<data auto_broadcast="numpy" />
			<input>
				<port id="0" precision="FP32">
					<dim>32</dim>
					<dim>256</dim>
					<dim>28</dim>
					<dim>28</dim>
				</port>
				<port id="1" precision="FP32">
					<dim>32</dim>
					<dim>256</dim>
					<dim>28</dim>
					<dim>28</dim>
				</port>
			</input>
			<output>
				<port id="2" precision="FP32" names="/model/layer1/layer1.2/Add_output_0">
					<dim>32</dim>
					<dim>256</dim>
					<dim>28</dim>
					<dim>28</dim>
				</port>
			</output>
		</layer>
		<layer id="58" name="/model/layer1/layer1.2/relu_2/Relu" type="ReLU" version="opset1">
			<input>
				<port id="0" precision="FP32">
					<dim>32</dim>
					<dim>256</dim>
					<dim>28</dim>
					<dim>28</dim>
				</port>
			</input>
			<output>
				<port id="1" precision="FP32" names="/model/layer1/layer1.2/relu_2/Relu_output_0">
					<dim>32</dim>
					<dim>256</dim>
					<dim>28</dim>
					<dim>28</dim>
				</port>
			</output>
		</layer>
		<layer id="59" name="onnx::Conv_540" type="Const" version="opset1">
			<data element_type="f32" shape="128, 256, 1, 1" offset="895488" size="131072" />
			<output>
				<port id="0" precision="FP32" names="onnx::Conv_540">
					<dim>128</dim>
					<dim>256</dim>
					<dim>1</dim>
					<dim>1</dim>
				</port>
			</output>
		</layer>
		<layer id="60" name="/model/layer2/layer2.0/conv1/Conv/WithoutBiases" type="Convolution" version="opset1">
			<data strides="1, 1" dilations="1, 1" pads_begin="0, 0" pads_end="0, 0" auto_pad="explicit" />
			<input>
				<port id="0" precision="FP32">
					<dim>32</dim>
					<dim>256</dim>
					<dim>28</dim>
					<dim>28</dim>
				</port>
				<port id="1" precision="FP32">
					<dim>128</dim>
					<dim>256</dim>
					<dim>1</dim>
					<dim>1</dim>
				</port>
			</input>
			<output>
				<port id="2" precision="FP32">
					<dim>32</dim>
					<dim>128</dim>
					<dim>28</dim>
					<dim>28</dim>
				</port>
			</output>
		</layer>
		<layer id="61" name="Reshape_306" type="Const" version="opset1">
			<data element_type="f32" shape="1, 128, 1, 1" offset="1026560" size="512" />
			<output>
				<port id="0" precision="FP32">
					<dim>1</dim>
					<dim>128</dim>
					<dim>1</dim>
					<dim>1</dim>
				</port>
			</output>
		</layer>
		<layer id="62" name="/model/layer2/layer2.0/conv1/Conv" type="Add" version="opset1">
			<data auto_broadcast="numpy" />
			<input>
				<port id="0" precision="FP32">
					<dim>32</dim>
					<dim>128</dim>
					<dim>28</dim>
					<dim>28</dim>
				</port>
				<port id="1" precision="FP32">
					<dim>1</dim>
					<dim>128</dim>
					<dim>1</dim>
					<dim>1</dim>
				</port>
			</input>
			<output>
				<port id="2" precision="FP32" names="/model/layer2/layer2.0/conv1/Conv_output_0">
					<dim>32</dim>
					<dim>128</dim>
					<dim>28</dim>
					<dim>28</dim>
				</port>
			</output>
		</layer>
		<layer id="63" name="/model/layer2/layer2.0/relu/Relu" type="ReLU" version="opset1">
			<input>
				<port id="0" precision="FP32">
					<dim>32</dim>
					<dim>128</dim>
					<dim>28</dim>
					<dim>28</dim>
				</port>
			</input>
			<output>
				<port id="1" precision="FP32" names="/model/layer2/layer2.0/relu/Relu_output_0">
					<dim>32</dim>
					<dim>128</dim>
					<dim>28</dim>
					<dim>28</dim>
				</port>
			</output>
		</layer>
		<layer id="64" name="onnx::Conv_543" type="Const" version="opset1">
			<data element_type="f32" shape="128, 128, 3, 3" offset="1027072" size="589824" />
			<output>
				<port id="0" precision="FP32" names="onnx::Conv_543">
					<dim>128</dim>
					<dim>128</dim>
					<dim>3</dim>
					<dim>3</dim>
				</port>
			</output>
		</layer>
		<layer id="65" name="/model/layer2/layer2.0/conv2/Conv/WithoutBiases" type="Convolution" version="opset1">
			<data strides="2, 2" dilations="1, 1" pads_begin="1, 1" pads_end="1, 1" auto_pad="explicit" />
			<input>
				<port id="0" precision="FP32">
					<dim>32</dim>
					<dim>128</dim>
					<dim>28</dim>
					<dim>28</dim>
				</port>
				<port id="1" precision="FP32">
					<dim>128</dim>
					<dim>128</dim>
					<dim>3</dim>
					<dim>3</dim>
				</port>
			</input>
			<output>
				<port id="2" precision="FP32">
					<dim>32</dim>
					<dim>128</dim>
					<dim>14</dim>
					<dim>14</dim>
				</port>
			</output>
		</layer>
		<layer id="66" name="Reshape_322" type="Const" version="opset1">
			<data element_type="f32" shape="1, 128, 1, 1" offset="1616896" size="512" />
			<output>
				<port id="0" precision="FP32">
					<dim>1</dim>
					<dim>128</dim>
					<dim>1</dim>
					<dim>1</dim>
				</port>
			</output>
		</layer>
		<layer id="67" name="/model/layer2/layer2.0/conv2/Conv" type="Add" version="opset1">
			<data auto_broadcast="numpy" />
			<input>
				<port id="0" precision="FP32">
					<dim>32</dim>
					<dim>128</dim>
					<dim>14</dim>
					<dim>14</dim>
				</port>
				<port id="1" precision="FP32">
					<dim>1</dim>
					<dim>128</dim>
					<dim>1</dim>
					<dim>1</dim>
				</port>
			</input>
			<output>
				<port id="2" precision="FP32" names="/model/layer2/layer2.0/conv2/Conv_output_0">
					<dim>32</dim>
					<dim>128</dim>
					<dim>14</dim>
					<dim>14</dim>
				</port>
			</output>
		</layer>
		<layer id="68" name="/model/layer2/layer2.0/relu_1/Relu" type="ReLU" version="opset1">
			<input>
				<port id="0" precision="FP32">
					<dim>32</dim>
					<dim>128</dim>
					<dim>14</dim>
					<dim>14</dim>
				</port>
			</input>
			<output>
				<port id="1" precision="FP32" names="/model/layer2/layer2.0/relu_1/Relu_output_0">
					<dim>32</dim>
					<dim>128</dim>
					<dim>14</dim>
					<dim>14</dim>
				</port>
			</output>
		</layer>
		<layer id="69" name="onnx::Conv_546" type="Const" version="opset1">
			<data element_type="f32" shape="512, 128, 1, 1" offset="1617408" size="262144" />
			<output>
				<port id="0" precision="FP32" names="onnx::Conv_546">
					<dim>512</dim>
					<dim>128</dim>
					<dim>1</dim>
					<dim>1</dim>
				</port>
			</output>
		</layer>
		<layer id="70" name="/model/layer2/layer2.0/conv3/Conv/WithoutBiases" type="Convolution" version="opset1">
			<data strides="1, 1" dilations="1, 1" pads_begin="0, 0" pads_end="0, 0" auto_pad="explicit" />
			<input>
				<port id="0" precision="FP32">
					<dim>32</dim>
					<dim>128</dim>
					<dim>14</dim>
					<dim>14</dim>
				</port>
				<port id="1" precision="FP32">
					<dim>512</dim>
					<dim>128</dim>
					<dim>1</dim>
					<dim>1</dim>
				</port>
			</input>
			<output>
				<port id="2" precision="FP32">
					<dim>32</dim>
					<dim>512</dim>
					<dim>14</dim>
					<dim>14</dim>
				</port>
			</output>
		</layer>
		<layer id="71" name="Reshape_338" type="Const" version="opset1">
			<data element_type="f32" shape="1, 512, 1, 1" offset="1879552" size="2048" />
			<output>
				<port id="0" precision="FP32">
					<dim>1</dim>
					<dim>512</dim>
					<dim>1</dim>
					<dim>1</dim>
				</port>
			</output>
		</layer>
		<layer id="72" name="/model/layer2/layer2.0/conv3/Conv" type="Add" version="opset1">
			<data auto_broadcast="numpy" />
			<input>
				<port id="0" precision="FP32">
					<dim>32</dim>
					<dim>512</dim>
					<dim>14</dim>
					<dim>14</dim>
				</port>
				<port id="1" precision="FP32">
					<dim>1</dim>
					<dim>512</dim>
					<dim>1</dim>
					<dim>1</dim>
				</port>
			</input>
			<output>
				<port id="2" precision="FP32" names="/model/layer2/layer2.0/conv3/Conv_output_0">
					<dim>32</dim>
					<dim>512</dim>
					<dim>14</dim>
					<dim>14</dim>
				</port>
			</output>
		</layer>
		<layer id="73" name="onnx::Conv_549" type="Const" version="opset1">
			<data element_type="f32" shape="512, 256, 1, 1" offset="1881600" size="524288" />
			<output>
				<port id="0" precision="FP32" names="onnx::Conv_549">
					<dim>512</dim>
					<dim>256</dim>
					<dim>1</dim>
					<dim>1</dim>
				</port>
			</output>
		</layer>
		<layer id="74" name="/model/layer2/layer2.0/downsample/downsample.0/Conv/WithoutBiases" type="Convolution" version="opset1">
			<data strides="2, 2" dilations="1, 1" pads_begin="0, 0" pads_end="0, 0" auto_pad="explicit" />
			<input>
				<port id="0" precision="FP32">
					<dim>32</dim>
					<dim>256</dim>
					<dim>28</dim>
					<dim>28</dim>
				</port>
				<port id="1" precision="FP32">
					<dim>512</dim>
					<dim>256</dim>
					<dim>1</dim>
					<dim>1</dim>
				</port>
			</input>
			<output>
				<port id="2" precision="FP32">
					<dim>32</dim>
					<dim>512</dim>
					<dim>14</dim>
					<dim>14</dim>
				</port>
			</output>
		</layer>
		<layer id="75" name="Reshape_353" type="Const" version="opset1">
			<data element_type="f32" shape="1, 512, 1, 1" offset="2405888" size="2048" />
			<output>
				<port id="0" precision="FP32">
					<dim>1</dim>
					<dim>512</dim>
					<dim>1</dim>
					<dim>1</dim>
				</port>
			</output>
		</layer>
		<layer id="76" name="/model/layer2/layer2.0/downsample/downsample.0/Conv" type="Add" version="opset1">
			<data auto_broadcast="numpy" />
			<input>
				<port id="0" precision="FP32">
					<dim>32</dim>
					<dim>512</dim>
					<dim>14</dim>
					<dim>14</dim>
				</port>
				<port id="1" precision="FP32">
					<dim>1</dim>
					<dim>512</dim>
					<dim>1</dim>
					<dim>1</dim>
				</port>
			</input>
			<output>
				<port id="2" precision="FP32" names="/model/layer2/layer2.0/downsample/downsample.0/Conv_output_0">
					<dim>32</dim>
					<dim>512</dim>
					<dim>14</dim>
					<dim>14</dim>
				</port>
			</output>
		</layer>
		<layer id="77" name="/model/layer2/layer2.0/Add" type="Add" version="opset1">
			<data auto_broadcast="numpy" />
			<input>
				<port id="0" precision="FP32">
					<dim>32</dim>
					<dim>512</dim>
					<dim>14</dim>
					<dim>14</dim>
				</port>
				<port id="1" precision="FP32">
					<dim>32</dim>
					<dim>512</dim>
					<dim>14</dim>
					<dim>14</dim>
				</port>
			</input>
			<output>
				<port id="2" precision="FP32" names="/model/layer2/layer2.0/Add_output_0">
					<dim>32</dim>
					<dim>512</dim>
					<dim>14</dim>
					<dim>14</dim>
				</port>
			</output>
		</layer>
		<layer id="78" name="/model/layer2/layer2.0/relu_2/Relu" type="ReLU" version="opset1">
			<input>
				<port id="0" precision="FP32">
					<dim>32</dim>
					<dim>512</dim>
					<dim>14</dim>
					<dim>14</dim>
				</port>
			</input>
			<output>
				<port id="1" precision="FP32" names="/model/layer2/layer2.0/relu_2/Relu_output_0">
					<dim>32</dim>
					<dim>512</dim>
					<dim>14</dim>
					<dim>14</dim>
				</port>
			</output>
		</layer>
		<layer id="79" name="onnx::Conv_552" type="Const" version="opset1">
			<data element_type="f32" shape="128, 512, 1, 1" offset="2407936" size="262144" />
			<output>
				<port id="0" precision="FP32" names="onnx::Conv_552">
					<dim>128</dim>
					<dim>512</dim>
					<dim>1</dim>
					<dim>1</dim>
				</port>
			</output>
		</layer>
		<layer id="80" name="/model/layer2/layer2.1/conv1/Conv/WithoutBiases" type="Convolution" version="opset1">
			<data strides="1, 1" dilations="1, 1" pads_begin="0, 0" pads_end="0, 0" auto_pad="explicit" />
			<input>
				<port id="0" precision="FP32">
					<dim>32</dim>
					<dim>512</dim>
					<dim>14</dim>
					<dim>14</dim>
				</port>
				<port id="1" precision="FP32">
					<dim>128</dim>
					<dim>512</dim>
					<dim>1</dim>
					<dim>1</dim>
				</port>
			</input>
			<output>
				<port id="2" precision="FP32">
					<dim>32</dim>
					<dim>128</dim>
					<dim>14</dim>
					<dim>14</dim>
				</port>
			</output>
		</layer>
		<layer id="81" name="Reshape_370" type="Const" version="opset1">
			<data element_type="f32" shape="1, 128, 1, 1" offset="2670080" size="512" />
			<output>
				<port id="0" precision="FP32">
					<dim>1</dim>
					<dim>128</dim>
					<dim>1</dim>
					<dim>1</dim>
				</port>
			</output>
		</layer>
		<layer id="82" name="/model/layer2/layer2.1/conv1/Conv" type="Add" version="opset1">
			<data auto_broadcast="numpy" />
			<input>
				<port id="0" precision="FP32">
					<dim>32</dim>
					<dim>128</dim>
					<dim>14</dim>
					<dim>14</dim>
				</port>
				<port id="1" precision="FP32">
					<dim>1</dim>
					<dim>128</dim>
					<dim>1</dim>
					<dim>1</dim>
				</port>
			</input>
			<output>
				<port id="2" precision="FP32" names="/model/layer2/layer2.1/conv1/Conv_output_0">
					<dim>32</dim>
					<dim>128</dim>
					<dim>14</dim>
					<dim>14</dim>
				</port>
			</output>
		</layer>
		<layer id="83" name="/model/layer2/layer2.1/relu/Relu" type="ReLU" version="opset1">
			<input>
				<port id="0" precision="FP32">
					<dim>32</dim>
					<dim>128</dim>
					<dim>14</dim>
					<dim>14</dim>
				</port>
			</input>
			<output>
				<port id="1" precision="FP32" names="/model/layer2/layer2.1/relu/Relu_output_0">
					<dim>32</dim>
					<dim>128</dim>
					<dim>14</dim>
					<dim>14</dim>
				</port>
			</output>
		</layer>
		<layer id="84" name="onnx::Conv_555" type="Const" version="opset1">
			<data element_type="f32" shape="128, 128, 3, 3" offset="2670592" size="589824" />
			<output>
				<port id="0" precision="FP32" names="onnx::Conv_555">
					<dim>128</dim>
					<dim>128</dim>
					<dim>3</dim>
					<dim>3</dim>
				</port>
			</output>
		</layer>
		<layer id="85" name="/model/layer2/layer2.1/conv2/Conv/WithoutBiases" type="Convolution" version="opset1">
			<data strides="1, 1" dilations="1, 1" pads_begin="1, 1" pads_end="1, 1" auto_pad="explicit" />
			<input>
				<port id="0" precision="FP32">
					<dim>32</dim>
					<dim>128</dim>
					<dim>14</dim>
					<dim>14</dim>
				</port>
				<port id="1" precision="FP32">
					<dim>128</dim>
					<dim>128</dim>
					<dim>3</dim>
					<dim>3</dim>
				</port>
			</input>
			<output>
				<port id="2" precision="FP32">
					<dim>32</dim>
					<dim>128</dim>
					<dim>14</dim>
					<dim>14</dim>
				</port>
			</output>
		</layer>
		<layer id="86" name="Reshape_386" type="Const" version="opset1">
			<data element_type="f32" shape="1, 128, 1, 1" offset="3260416" size="512" />
			<output>
				<port id="0" precision="FP32">
					<dim>1</dim>
					<dim>128</dim>
					<dim>1</dim>
					<dim>1</dim>
				</port>
			</output>
		</layer>
		<layer id="87" name="/model/layer2/layer2.1/conv2/Conv" type="Add" version="opset1">
			<data auto_broadcast="numpy" />
			<input>
				<port id="0" precision="FP32">
					<dim>32</dim>
					<dim>128</dim>
					<dim>14</dim>
					<dim>14</dim>
				</port>
				<port id="1" precision="FP32">
					<dim>1</dim>
					<dim>128</dim>
					<dim>1</dim>
					<dim>1</dim>
				</port>
			</input>
			<output>
				<port id="2" precision="FP32" names="/model/layer2/layer2.1/conv2/Conv_output_0">
					<dim>32</dim>
					<dim>128</dim>
					<dim>14</dim>
					<dim>14</dim>
				</port>
			</output>
		</layer>
		<layer id="88" name="/model/layer2/layer2.1/relu_1/Relu" type="ReLU" version="opset1">
			<input>
				<port id="0" precision="FP32">
					<dim>32</dim>
					<dim>128</dim>
					<dim>14</dim>
					<dim>14</dim>
				</port>
			</input>
			<output>
				<port id="1" precision="FP32" names="/model/layer2/layer2.1/relu_1/Relu_output_0">
					<dim>32</dim>
					<dim>128</dim>
					<dim>14</dim>
					<dim>14</dim>
				</port>
			</output>
		</layer>
		<layer id="89" name="onnx::Conv_558" type="Const" version="opset1">
			<data element_type="f32" shape="512, 128, 1, 1" offset="3260928" size="262144" />
			<output>
				<port id="0" precision="FP32" names="onnx::Conv_558">
					<dim>512</dim>
					<dim>128</dim>
					<dim>1</dim>
					<dim>1</dim>
				</port>
			</output>
		</layer>
		<layer id="90" name="/model/layer2/layer2.1/conv3/Conv/WithoutBiases" type="Convolution" version="opset1">
			<data strides="1, 1" dilations="1, 1" pads_begin="0, 0" pads_end="0, 0" auto_pad="explicit" />
			<input>
				<port id="0" precision="FP32">
					<dim>32</dim>
					<dim>128</dim>
					<dim>14</dim>
					<dim>14</dim>
				</port>
				<port id="1" precision="FP32">
					<dim>512</dim>
					<dim>128</dim>
					<dim>1</dim>
					<dim>1</dim>
				</port>
			</input>
			<output>
				<port id="2" precision="FP32">
					<dim>32</dim>
					<dim>512</dim>
					<dim>14</dim>
					<dim>14</dim>
				</port>
			</output>
		</layer>
		<layer id="91" name="Reshape_402" type="Const" version="opset1">
			<data element_type="f32" shape="1, 512, 1, 1" offset="3523072" size="2048" />
			<output>
				<port id="0" precision="FP32">
					<dim>1</dim>
					<dim>512</dim>
					<dim>1</dim>
					<dim>1</dim>
				</port>
			</output>
		</layer>
		<layer id="92" name="/model/layer2/layer2.1/conv3/Conv" type="Add" version="opset1">
			<data auto_broadcast="numpy" />
			<input>
				<port id="0" precision="FP32">
					<dim>32</dim>
					<dim>512</dim>
					<dim>14</dim>
					<dim>14</dim>
				</port>
				<port id="1" precision="FP32">
					<dim>1</dim>
					<dim>512</dim>
					<dim>1</dim>
					<dim>1</dim>
				</port>
			</input>
			<output>
				<port id="2" precision="FP32" names="/model/layer2/layer2.1/conv3/Conv_output_0">
					<dim>32</dim>
					<dim>512</dim>
					<dim>14</dim>
					<dim>14</dim>
				</port>
			</output>
		</layer>
		<layer id="93" name="/model/layer2/layer2.1/Add" type="Add" version="opset1">
			<data auto_broadcast="numpy" />
			<input>
				<port id="0" precision="FP32">
					<dim>32</dim>
					<dim>512</dim>
					<dim>14</dim>
					<dim>14</dim>
				</port>
				<port id="1" precision="FP32">
					<dim>32</dim>
					<dim>512</dim>
					<dim>14</dim>
					<dim>14</dim>
				</port>
			</input>
			<output>
				<port id="2" precision="FP32" names="/model/layer2/layer2.1/Add_output_0">
					<dim>32</dim>
					<dim>512</dim>
					<dim>14</dim>
					<dim>14</dim>
				</port>
			</output>
		</layer>
		<layer id="94" name="/model/layer2/layer2.1/relu_2/Relu" type="ReLU" version="opset1">
			<input>
				<port id="0" precision="FP32">
					<dim>32</dim>
					<dim>512</dim>
					<dim>14</dim>
					<dim>14</dim>
				</port>
			</input>
			<output>
				<port id="1" precision="FP32" names="/model/layer2/layer2.1/relu_2/Relu_output_0">
					<dim>32</dim>
					<dim>512</dim>
					<dim>14</dim>
					<dim>14</dim>
				</port>
			</output>
		</layer>
		<layer id="95" name="onnx::Conv_561" type="Const" version="opset1">
			<data element_type="f32" shape="128, 512, 1, 1" offset="3525120" size="262144" />
			<output>
				<port id="0" precision="FP32" names="onnx::Conv_561">
					<dim>128</dim>
					<dim>512</dim>
					<dim>1</dim>
					<dim>1</dim>
				</port>
			</output>
		</layer>
		<layer id="96" name="/model/layer2/layer2.2/conv1/Conv/WithoutBiases" type="Convolution" version="opset1">
			<data strides="1, 1" dilations="1, 1" pads_begin="0, 0" pads_end="0, 0" auto_pad="explicit" />
			<input>
				<port id="0" precision="FP32">
					<dim>32</dim>
					<dim>512</dim>
					<dim>14</dim>
					<dim>14</dim>
				</port>
				<port id="1" precision="FP32">
					<dim>128</dim>
					<dim>512</dim>
					<dim>1</dim>
					<dim>1</dim>
				</port>
			</input>
			<output>
				<port id="2" precision="FP32">
					<dim>32</dim>
					<dim>128</dim>
					<dim>14</dim>
					<dim>14</dim>
				</port>
			</output>
		</layer>
		<layer id="97" name="Reshape_419" type="Const" version="opset1">
			<data element_type="f32" shape="1, 128, 1, 1" offset="3787264" size="512" />
			<output>
				<port id="0" precision="FP32">
					<dim>1</dim>
					<dim>128</dim>
					<dim>1</dim>
					<dim>1</dim>
				</port>
			</output>
		</layer>
		<layer id="98" name="/model/layer2/layer2.2/conv1/Conv" type="Add" version="opset1">
			<data auto_broadcast="numpy" />
			<input>
				<port id="0" precision="FP32">
					<dim>32</dim>
					<dim>128</dim>
					<dim>14</dim>
					<dim>14</dim>
				</port>
				<port id="1" precision="FP32">
					<dim>1</dim>
					<dim>128</dim>
					<dim>1</dim>
					<dim>1</dim>
				</port>
			</input>
			<output>
				<port id="2" precision="FP32" names="/model/layer2/layer2.2/conv1/Conv_output_0">
					<dim>32</dim>
					<dim>128</dim>
					<dim>14</dim>
					<dim>14</dim>
				</port>
			</output>
		</layer>
		<layer id="99" name="/model/layer2/layer2.2/relu/Relu" type="ReLU" version="opset1">
			<input>
				<port id="0" precision="FP32">
					<dim>32</dim>
					<dim>128</dim>
					<dim>14</dim>
					<dim>14</dim>
				</port>
			</input>
			<output>
				<port id="1" precision="FP32" names="/model/layer2/layer2.2/relu/Relu_output_0">
					<dim>32</dim>
					<dim>128</dim>
					<dim>14</dim>
					<dim>14</dim>
				</port>
			</output>
		</layer>
		<layer id="100" name="onnx::Conv_564" type="Const" version="opset1">
			<data element_type="f32" shape="128, 128, 3, 3" offset="3787776" size="589824" />
			<output>
				<port id="0" precision="FP32" names="onnx::Conv_564">
					<dim>128</dim>
					<dim>128</dim>
					<dim>3</dim>
					<dim>3</dim>
				</port>
			</output>
		</layer>
		<layer id="101" name="/model/layer2/layer2.2/conv2/Conv/WithoutBiases" type="Convolution" version="opset1">
			<data strides="1, 1" dilations="1, 1" pads_begin="1, 1" pads_end="1, 1" auto_pad="explicit" />
			<input>
				<port id="0" precision="FP32">
					<dim>32</dim>
					<dim>128</dim>
					<dim>14</dim>
					<dim>14</dim>
				</port>
				<port id="1" precision="FP32">
					<dim>128</dim>
					<dim>128</dim>
					<dim>3</dim>
					<dim>3</dim>
				</port>
			</input>
			<output>
				<port id="2" precision="FP32">
					<dim>32</dim>
					<dim>128</dim>
					<dim>14</dim>
					<dim>14</dim>
				</port>
			</output>
		</layer>
		<layer id="102" name="Reshape_435" type="Const" version="opset1">
			<data element_type="f32" shape="1, 128, 1, 1" offset="4377600" size="512" />
			<output>
				<port id="0" precision="FP32">
					<dim>1</dim>
					<dim>128</dim>
					<dim>1</dim>
					<dim>1</dim>
				</port>
			</output>
		</layer>
		<layer id="103" name="/model/layer2/layer2.2/conv2/Conv" type="Add" version="opset1">
			<data auto_broadcast="numpy" />
			<input>
				<port id="0" precision="FP32">
					<dim>32</dim>
					<dim>128</dim>
					<dim>14</dim>
					<dim>14</dim>
				</port>
				<port id="1" precision="FP32">
					<dim>1</dim>
					<dim>128</dim>
					<dim>1</dim>
					<dim>1</dim>
				</port>
			</input>
			<output>
				<port id="2" precision="FP32" names="/model/layer2/layer2.2/conv2/Conv_output_0">
					<dim>32</dim>
					<dim>128</dim>
					<dim>14</dim>
					<dim>14</dim>
				</port>
			</output>
		</layer>
		<layer id="104" name="/model/layer2/layer2.2/relu_1/Relu" type="ReLU" version="opset1">
			<input>
				<port id="0" precision="FP32">
					<dim>32</dim>
					<dim>128</dim>
					<dim>14</dim>
					<dim>14</dim>
				</port>
			</input>
			<output>
				<port id="1" precision="FP32" names="/model/layer2/layer2.2/relu_1/Relu_output_0">
					<dim>32</dim>
					<dim>128</dim>
					<dim>14</dim>
					<dim>14</dim>
				</port>
			</output>
		</layer>
		<layer id="105" name="onnx::Conv_567" type="Const" version="opset1">
			<data element_type="f32" shape="512, 128, 1, 1" offset="4378112" size="262144" />
			<output>
				<port id="0" precision="FP32" names="onnx::Conv_567">
					<dim>512</dim>
					<dim>128</dim>
					<dim>1</dim>
					<dim>1</dim>
				</port>
			</output>
		</layer>
		<layer id="106" name="/model/layer2/layer2.2/conv3/Conv/WithoutBiases" type="Convolution" version="opset1">
			<data strides="1, 1" dilations="1, 1" pads_begin="0, 0" pads_end="0, 0" auto_pad="explicit" />
			<input>
				<port id="0" precision="FP32">
					<dim>32</dim>
					<dim>128</dim>
					<dim>14</dim>
					<dim>14</dim>
				</port>
				<port id="1" precision="FP32">
					<dim>512</dim>
					<dim>128</dim>
					<dim>1</dim>
					<dim>1</dim>
				</port>
			</input>
			<output>
				<port id="2" precision="FP32">
					<dim>32</dim>
					<dim>512</dim>
					<dim>14</dim>
					<dim>14</dim>
				</port>
			</output>
		</layer>
		<layer id="107" name="Reshape_451" type="Const" version="opset1">
			<data element_type="f32" shape="1, 512, 1, 1" offset="4640256" size="2048" />
			<output>
				<port id="0" precision="FP32">
					<dim>1</dim>
					<dim>512</dim>
					<dim>1</dim>
					<dim>1</dim>
				</port>
			</output>
		</layer>
		<layer id="108" name="/model/layer2/layer2.2/conv3/Conv" type="Add" version="opset1">
			<data auto_broadcast="numpy" />
			<input>
				<port id="0" precision="FP32">
					<dim>32</dim>
					<dim>512</dim>
					<dim>14</dim>
					<dim>14</dim>
				</port>
				<port id="1" precision="FP32">
					<dim>1</dim>
					<dim>512</dim>
					<dim>1</dim>
					<dim>1</dim>
				</port>
			</input>
			<output>
				<port id="2" precision="FP32" names="/model/layer2/layer2.2/conv3/Conv_output_0">
					<dim>32</dim>
					<dim>512</dim>
					<dim>14</dim>
					<dim>14</dim>
				</port>
			</output>
		</layer>
		<layer id="109" name="/model/layer2/layer2.2/Add" type="Add" version="opset1">
			<data auto_broadcast="numpy" />
			<input>
				<port id="0" precision="FP32">
					<dim>32</dim>
					<dim>512</dim>
					<dim>14</dim>
					<dim>14</dim>
				</port>
				<port id="1" precision="FP32">
					<dim>32</dim>
					<dim>512</dim>
					<dim>14</dim>
					<dim>14</dim>
				</port>
			</input>
			<output>
				<port id="2" precision="FP32" names="/model/layer2/layer2.2/Add_output_0">
					<dim>32</dim>
					<dim>512</dim>
					<dim>14</dim>
					<dim>14</dim>
				</port>
			</output>
		</layer>
		<layer id="110" name="/model/layer2/layer2.2/relu_2/Relu" type="ReLU" version="opset1">
			<input>
				<port id="0" precision="FP32">
					<dim>32</dim>
					<dim>512</dim>
					<dim>14</dim>
					<dim>14</dim>
				</port>
			</input>
			<output>
				<port id="1" precision="FP32" names="/model/layer2/layer2.2/relu_2/Relu_output_0">
					<dim>32</dim>
					<dim>512</dim>
					<dim>14</dim>
					<dim>14</dim>
				</port>
			</output>
		</layer>
		<layer id="111" name="onnx::Conv_570" type="Const" version="opset1">
			<data element_type="f32" shape="128, 512, 1, 1" offset="4642304" size="262144" />
			<output>
				<port id="0" precision="FP32" names="onnx::Conv_570">
					<dim>128</dim>
					<dim>512</dim>
					<dim>1</dim>
					<dim>1</dim>
				</port>
			</output>
		</layer>
		<layer id="112" name="/model/layer2/layer2.3/conv1/Conv/WithoutBiases" type="Convolution" version="opset1">
			<data strides="1, 1" dilations="1, 1" pads_begin="0, 0" pads_end="0, 0" auto_pad="explicit" />
			<input>
				<port id="0" precision="FP32">
					<dim>32</dim>
					<dim>512</dim>
					<dim>14</dim>
					<dim>14</dim>
				</port>
				<port id="1" precision="FP32">
					<dim>128</dim>
					<dim>512</dim>
					<dim>1</dim>
					<dim>1</dim>
				</port>
			</input>
			<output>
				<port id="2" precision="FP32">
					<dim>32</dim>
					<dim>128</dim>
					<dim>14</dim>
					<dim>14</dim>
				</port>
			</output>
		</layer>
		<layer id="113" name="Reshape_468" type="Const" version="opset1">
			<data element_type="f32" shape="1, 128, 1, 1" offset="4904448" size="512" />
			<output>
				<port id="0" precision="FP32">
					<dim>1</dim>
					<dim>128</dim>
					<dim>1</dim>
					<dim>1</dim>
				</port>
			</output>
		</layer>
		<layer id="114" name="/model/layer2/layer2.3/conv1/Conv" type="Add" version="opset1">
			<data auto_broadcast="numpy" />
			<input>
				<port id="0" precision="FP32">
					<dim>32</dim>
					<dim>128</dim>
					<dim>14</dim>
					<dim>14</dim>
				</port>
				<port id="1" precision="FP32">
					<dim>1</dim>
					<dim>128</dim>
					<dim>1</dim>
					<dim>1</dim>
				</port>
			</input>
			<output>
				<port id="2" precision="FP32" names="/model/layer2/layer2.3/conv1/Conv_output_0">
					<dim>32</dim>
					<dim>128</dim>
					<dim>14</dim>
					<dim>14</dim>
				</port>
			</output>
		</layer>
		<layer id="115" name="/model/layer2/layer2.3/relu/Relu" type="ReLU" version="opset1">
			<input>
				<port id="0" precision="FP32">
					<dim>32</dim>
					<dim>128</dim>
					<dim>14</dim>
					<dim>14</dim>
				</port>
			</input>
			<output>
				<port id="1" precision="FP32" names="/model/layer2/layer2.3/relu/Relu_output_0">
					<dim>32</dim>
					<dim>128</dim>
					<dim>14</dim>
					<dim>14</dim>
				</port>
			</output>
		</layer>
		<layer id="116" name="onnx::Conv_573" type="Const" version="opset1">
			<data element_type="f32" shape="128, 128, 3, 3" offset="4904960" size="589824" />
			<output>
				<port id="0" precision="FP32" names="onnx::Conv_573">
					<dim>128</dim>
					<dim>128</dim>
					<dim>3</dim>
					<dim>3</dim>
				</port>
			</output>
		</layer>
		<layer id="117" name="/model/layer2/layer2.3/conv2/Conv/WithoutBiases" type="Convolution" version="opset1">
			<data strides="1, 1" dilations="1, 1" pads_begin="1, 1" pads_end="1, 1" auto_pad="explicit" />
			<input>
				<port id="0" precision="FP32">
					<dim>32</dim>
					<dim>128</dim>
					<dim>14</dim>
					<dim>14</dim>
				</port>
				<port id="1" precision="FP32">
					<dim>128</dim>
					<dim>128</dim>
					<dim>3</dim>
					<dim>3</dim>
				</port>
			</input>
			<output>
				<port id="2" precision="FP32">
					<dim>32</dim>
					<dim>128</dim>
					<dim>14</dim>
					<dim>14</dim>
				</port>
			</output>
		</layer>
		<layer id="118" name="Reshape_484" type="Const" version="opset1">
			<data element_type="f32" shape="1, 128, 1, 1" offset="5494784" size="512" />
			<output>
				<port id="0" precision="FP32">
					<dim>1</dim>
					<dim>128</dim>
					<dim>1</dim>
					<dim>1</dim>
				</port>
			</output>
		</layer>
		<layer id="119" name="/model/layer2/layer2.3/conv2/Conv" type="Add" version="opset1">
			<data auto_broadcast="numpy" />
			<input>
				<port id="0" precision="FP32">
					<dim>32</dim>
					<dim>128</dim>
					<dim>14</dim>
					<dim>14</dim>
				</port>
				<port id="1" precision="FP32">
					<dim>1</dim>
					<dim>128</dim>
					<dim>1</dim>
					<dim>1</dim>
				</port>
			</input>
			<output>
				<port id="2" precision="FP32" names="/model/layer2/layer2.3/conv2/Conv_output_0">
					<dim>32</dim>
					<dim>128</dim>
					<dim>14</dim>
					<dim>14</dim>
				</port>
			</output>
		</layer>
		<layer id="120" name="/model/layer2/layer2.3/relu_1/Relu" type="ReLU" version="opset1">
			<input>
				<port id="0" precision="FP32">
					<dim>32</dim>
					<dim>128</dim>
					<dim>14</dim>
					<dim>14</dim>
				</port>
			</input>
			<output>
				<port id="1" precision="FP32" names="/model/layer2/layer2.3/relu_1/Relu_output_0">
					<dim>32</dim>
					<dim>128</dim>
					<dim>14</dim>
					<dim>14</dim>
				</port>
			</output>
		</layer>
		<layer id="121" name="onnx::Conv_576" type="Const" version="opset1">
			<data element_type="f32" shape="512, 128, 1, 1" offset="5495296" size="262144" />
			<output>
				<port id="0" precision="FP32" names="onnx::Conv_576">
					<dim>512</dim>
					<dim>128</dim>
					<dim>1</dim>
					<dim>1</dim>
				</port>
			</output>
		</layer>
		<layer id="122" name="/model/layer2/layer2.3/conv3/Conv/WithoutBiases" type="Convolution" version="opset1">
			<data strides="1, 1" dilations="1, 1" pads_begin="0, 0" pads_end="0, 0" auto_pad="explicit" />
			<input>
				<port id="0" precision="FP32">
					<dim>32</dim>
					<dim>128</dim>
					<dim>14</dim>
					<dim>14</dim>
				</port>
				<port id="1" precision="FP32">
					<dim>512</dim>
					<dim>128</dim>
					<dim>1</dim>
					<dim>1</dim>
				</port>
			</input>
			<output>
				<port id="2" precision="FP32">
					<dim>32</dim>
					<dim>512</dim>
					<dim>14</dim>
					<dim>14</dim>
				</port>
			</output>
		</layer>
		<layer id="123" name="Reshape_500" type="Const" version="opset1">
			<data element_type="f32" shape="1, 512, 1, 1" offset="5757440" size="2048" />
			<output>
				<port id="0" precision="FP32">
					<dim>1</dim>
					<dim>512</dim>
					<dim>1</dim>
					<dim>1</dim>
				</port>
			</output>
		</layer>
		<layer id="124" name="/model/layer2/layer2.3/conv3/Conv" type="Add" version="opset1">
			<data auto_broadcast="numpy" />
			<input>
				<port id="0" precision="FP32">
					<dim>32</dim>
					<dim>512</dim>
					<dim>14</dim>
					<dim>14</dim>
				</port>
				<port id="1" precision="FP32">
					<dim>1</dim>
					<dim>512</dim>
					<dim>1</dim>
					<dim>1</dim>
				</port>
			</input>
			<output>
				<port id="2" precision="FP32" names="/model/layer2/layer2.3/conv3/Conv_output_0">
					<dim>32</dim>
					<dim>512</dim>
					<dim>14</dim>
					<dim>14</dim>
				</port>
			</output>
		</layer>
		<layer id="125" name="/model/layer2/layer2.3/Add" type="Add" version="opset1">
			<data auto_broadcast="numpy" />
			<input>
				<port id="0" precision="FP32">
					<dim>32</dim>
					<dim>512</dim>
					<dim>14</dim>
					<dim>14</dim>
				</port>
				<port id="1" precision="FP32">
					<dim>32</dim>
					<dim>512</dim>
					<dim>14</dim>
					<dim>14</dim>
				</port>
			</input>
			<output>
				<port id="2" precision="FP32" names="/model/layer2/layer2.3/Add_output_0">
					<dim>32</dim>
					<dim>512</dim>
					<dim>14</dim>
					<dim>14</dim>
				</port>
			</output>
		</layer>
		<layer id="126" name="/model/layer2/layer2.3/relu_2/Relu" type="ReLU" version="opset1">
			<input>
				<port id="0" precision="FP32">
					<dim>32</dim>
					<dim>512</dim>
					<dim>14</dim>
					<dim>14</dim>
				</port>
			</input>
			<output>
				<port id="1" precision="FP32" names="/model/layer2/layer2.3/relu_2/Relu_output_0">
					<dim>32</dim>
					<dim>512</dim>
					<dim>14</dim>
					<dim>14</dim>
				</port>
			</output>
		</layer>
		<layer id="127" name="onnx::Conv_579" type="Const" version="opset1">
			<data element_type="f32" shape="256, 512, 1, 1" offset="5759488" size="524288" />
			<output>
				<port id="0" precision="FP32" names="onnx::Conv_579">
					<dim>256</dim>
					<dim>512</dim>
					<dim>1</dim>
					<dim>1</dim>
				</port>
			</output>
		</layer>
		<layer id="128" name="/model/layer3/layer3.0/conv1/Conv/WithoutBiases" type="Convolution" version="opset1">
			<data strides="1, 1" dilations="1, 1" pads_begin="0, 0" pads_end="0, 0" auto_pad="explicit" />
			<input>
				<port id="0" precision="FP32">
					<dim>32</dim>
					<dim>512</dim>
					<dim>14</dim>
					<dim>14</dim>
				</port>
				<port id="1" precision="FP32">
					<dim>256</dim>
					<dim>512</dim>
					<dim>1</dim>
					<dim>1</dim>
				</port>
			</input>
			<output>
				<port id="2" precision="FP32">
					<dim>32</dim>
					<dim>256</dim>
					<dim>14</dim>
					<dim>14</dim>
				</port>
			</output>
		</layer>
		<layer id="129" name="Reshape_517" type="Const" version="opset1">
			<data element_type="f32" shape="1, 256, 1, 1" offset="6283776" size="1024" />
			<output>
				<port id="0" precision="FP32">
					<dim>1</dim>
					<dim>256</dim>
					<dim>1</dim>
					<dim>1</dim>
				</port>
			</output>
		</layer>
		<layer id="130" name="/model/layer3/layer3.0/conv1/Conv" type="Add" version="opset1">
			<data auto_broadcast="numpy" />
			<input>
				<port id="0" precision="FP32">
					<dim>32</dim>
					<dim>256</dim>
					<dim>14</dim>
					<dim>14</dim>
				</port>
				<port id="1" precision="FP32">
					<dim>1</dim>
					<dim>256</dim>
					<dim>1</dim>
					<dim>1</dim>
				</port>
			</input>
			<output>
				<port id="2" precision="FP32" names="/model/layer3/layer3.0/conv1/Conv_output_0">
					<dim>32</dim>
					<dim>256</dim>
					<dim>14</dim>
					<dim>14</dim>
				</port>
			</output>
		</layer>
		<layer id="131" name="/model/layer3/layer3.0/relu/Relu" type="ReLU" version="opset1">
			<input>
				<port id="0" precision="FP32">
					<dim>32</dim>
					<dim>256</dim>
					<dim>14</dim>
					<dim>14</dim>
				</port>
			</input>
			<output>
				<port id="1" precision="FP32" names="/model/layer3/layer3.0/relu/Relu_output_0">
					<dim>32</dim>
					<dim>256</dim>
					<dim>14</dim>
					<dim>14</dim>
				</port>
			</output>
		</layer>
		<layer id="132" name="onnx::Conv_582" type="Const" version="opset1">
			<data element_type="f32" shape="256, 256, 3, 3" offset="6284800" size="2359296" />
			<output>
				<port id="0" precision="FP32" names="onnx::Conv_582">
					<dim>256</dim>
					<dim>256</dim>
					<dim>3</dim>
					<dim>3</dim>
				</port>
			</output>
		</layer>
		<layer id="133" name="/model/layer3/layer3.0/conv2/Conv/WithoutBiases" type="Convolution" version="opset1">
			<data strides="2, 2" dilations="1, 1" pads_begin="1, 1" pads_end="1, 1" auto_pad="explicit" />
			<input>
				<port id="0" precision="FP32">
					<dim>32</dim>
					<dim>256</dim>
					<dim>14</dim>
					<dim>14</dim>
				</port>
				<port id="1" precision="FP32">
					<dim>256</dim>
					<dim>256</dim>
					<dim>3</dim>
					<dim>3</dim>
				</port>
			</input>
			<output>
				<port id="2" precision="FP32">
					<dim>32</dim>
					<dim>256</dim>
					<dim>7</dim>
					<dim>7</dim>
				</port>
			</output>
		</layer>
		<layer id="134" name="Reshape_533" type="Const" version="opset1">
			<data element_type="f32" shape="1, 256, 1, 1" offset="8644096" size="1024" />
			<output>
				<port id="0" precision="FP32">
					<dim>1</dim>
					<dim>256</dim>
					<dim>1</dim>
					<dim>1</dim>
				</port>
			</output>
		</layer>
		<layer id="135" name="/model/layer3/layer3.0/conv2/Conv" type="Add" version="opset1">
			<data auto_broadcast="numpy" />
			<input>
				<port id="0" precision="FP32">
					<dim>32</dim>
					<dim>256</dim>
					<dim>7</dim>
					<dim>7</dim>
				</port>
				<port id="1" precision="FP32">
					<dim>1</dim>
					<dim>256</dim>
					<dim>1</dim>
					<dim>1</dim>
				</port>
			</input>
			<output>
				<port id="2" precision="FP32" names="/model/layer3/layer3.0/conv2/Conv_output_0">
					<dim>32</dim>
					<dim>256</dim>
					<dim>7</dim>
					<dim>7</dim>
				</port>
			</output>
		</layer>
		<layer id="136" name="/model/layer3/layer3.0/relu_1/Relu" type="ReLU" version="opset1">
			<input>
				<port id="0" precision="FP32">
					<dim>32</dim>
					<dim>256</dim>
					<dim>7</dim>
					<dim>7</dim>
				</port>
			</input>
			<output>
				<port id="1" precision="FP32" names="/model/layer3/layer3.0/relu_1/Relu_output_0">
					<dim>32</dim>
					<dim>256</dim>
					<dim>7</dim>
					<dim>7</dim>
				</port>
			</output>
		</layer>
		<layer id="137" name="onnx::Conv_585" type="Const" version="opset1">
			<data element_type="f32" shape="1024, 256, 1, 1" offset="8645120" size="1048576" />
			<output>
				<port id="0" precision="FP32" names="onnx::Conv_585">
					<dim>1024</dim>
					<dim>256</dim>
					<dim>1</dim>
					<dim>1</dim>
				</port>
			</output>
		</layer>
		<layer id="138" name="/model/layer3/layer3.0/conv3/Conv/WithoutBiases" type="Convolution" version="opset1">
			<data strides="1, 1" dilations="1, 1" pads_begin="0, 0" pads_end="0, 0" auto_pad="explicit" />
			<input>
				<port id="0" precision="FP32">
					<dim>32</dim>
					<dim>256</dim>
					<dim>7</dim>
					<dim>7</dim>
				</port>
				<port id="1" precision="FP32">
					<dim>1024</dim>
					<dim>256</dim>
					<dim>1</dim>
					<dim>1</dim>
				</port>
			</input>
			<output>
				<port id="2" precision="FP32">
					<dim>32</dim>
					<dim>1024</dim>
					<dim>7</dim>
					<dim>7</dim>
				</port>
			</output>
		</layer>
		<layer id="139" name="Reshape_549" type="Const" version="opset1">
			<data element_type="f32" shape="1, 1024, 1, 1" offset="9693696" size="4096" />
			<output>
				<port id="0" precision="FP32">
					<dim>1</dim>
					<dim>1024</dim>
					<dim>1</dim>
					<dim>1</dim>
				</port>
			</output>
		</layer>
		<layer id="140" name="/model/layer3/layer3.0/conv3/Conv" type="Add" version="opset1">
			<data auto_broadcast="numpy" />
			<input>
				<port id="0" precision="FP32">
					<dim>32</dim>
					<dim>1024</dim>
					<dim>7</dim>
					<dim>7</dim>
				</port>
				<port id="1" precision="FP32">
					<dim>1</dim>
					<dim>1024</dim>
					<dim>1</dim>
					<dim>1</dim>
				</port>
			</input>
			<output>
				<port id="2" precision="FP32" names="/model/layer3/layer3.0/conv3/Conv_output_0">
					<dim>32</dim>
					<dim>1024</dim>
					<dim>7</dim>
					<dim>7</dim>
				</port>
			</output>
		</layer>
		<layer id="141" name="onnx::Conv_588" type="Const" version="opset1">
			<data element_type="f32" shape="1024, 512, 1, 1" offset="9697792" size="2097152" />
			<output>
				<port id="0" precision="FP32" names="onnx::Conv_588">
					<dim>1024</dim>
					<dim>512</dim>
					<dim>1</dim>
					<dim>1</dim>
				</port>
			</output>
		</layer>
		<layer id="142" name="/model/layer3/layer3.0/downsample/downsample.0/Conv/WithoutBiases" type="Convolution" version="opset1">
			<data strides="2, 2" dilations="1, 1" pads_begin="0, 0" pads_end="0, 0" auto_pad="explicit" />
			<input>
				<port id="0" precision="FP32">
					<dim>32</dim>
					<dim>512</dim>
					<dim>14</dim>
					<dim>14</dim>
				</port>
				<port id="1" precision="FP32">
					<dim>1024</dim>
					<dim>512</dim>
					<dim>1</dim>
					<dim>1</dim>
				</port>
			</input>
			<output>
				<port id="2" precision="FP32">
					<dim>32</dim>
					<dim>1024</dim>
					<dim>7</dim>
					<dim>7</dim>
				</port>
			</output>
		</layer>
		<layer id="143" name="Reshape_564" type="Const" version="opset1">
			<data element_type="f32" shape="1, 1024, 1, 1" offset="11794944" size="4096" />
			<output>
				<port id="0" precision="FP32">
					<dim>1</dim>
					<dim>1024</dim>
					<dim>1</dim>
					<dim>1</dim>
				</port>
			</output>
		</layer>
		<layer id="144" name="/model/layer3/layer3.0/downsample/downsample.0/Conv" type="Add" version="opset1">
			<data auto_broadcast="numpy" />
			<input>
				<port id="0" precision="FP32">
					<dim>32</dim>
					<dim>1024</dim>
					<dim>7</dim>
					<dim>7</dim>
				</port>
				<port id="1" precision="FP32">
					<dim>1</dim>
					<dim>1024</dim>
					<dim>1</dim>
					<dim>1</dim>
				</port>
			</input>
			<output>
				<port id="2" precision="FP32" names="/model/layer3/layer3.0/downsample/downsample.0/Conv_output_0">
					<dim>32</dim>
					<dim>1024</dim>
					<dim>7</dim>
					<dim>7</dim>
				</port>
			</output>
		</layer>
		<layer id="145" name="/model/layer3/layer3.0/Add" type="Add" version="opset1">
			<data auto_broadcast="numpy" />
			<input>
				<port id="0" precision="FP32">
					<dim>32</dim>
					<dim>1024</dim>
					<dim>7</dim>
					<dim>7</dim>
				</port>
				<port id="1" precision="FP32">
					<dim>32</dim>
					<dim>1024</dim>
					<dim>7</dim>
					<dim>7</dim>
				</port>
			</input>
			<output>
				<port id="2" precision="FP32" names="/model/layer3/layer3.0/Add_output_0">
					<dim>32</dim>
					<dim>1024</dim>
					<dim>7</dim>
					<dim>7</dim>
				</port>
			</output>
		</layer>
		<layer id="146" name="/model/layer3/layer3.0/relu_2/Relu" type="ReLU" version="opset1">
			<input>
				<port id="0" precision="FP32">
					<dim>32</dim>
					<dim>1024</dim>
					<dim>7</dim>
					<dim>7</dim>
				</port>
			</input>
			<output>
				<port id="1" precision="FP32" names="/model/layer3/layer3.0/relu_2/Relu_output_0">
					<dim>32</dim>
					<dim>1024</dim>
					<dim>7</dim>
					<dim>7</dim>
				</port>
			</output>
		</layer>
		<layer id="147" name="onnx::Conv_591" type="Const" version="opset1">
			<data element_type="f32" shape="256, 1024, 1, 1" offset="8645120" size="1048576" />
			<output>
				<port id="0" precision="FP32" names="onnx::Conv_591">
					<dim>256</dim>
					<dim>1024</dim>
					<dim>1</dim>
					<dim>1</dim>
				</port>
			</output>
		</layer>
		<layer id="148" name="/model/layer3/layer3.1/conv1/Conv/WithoutBiases" type="Convolution" version="opset1">
			<data strides="1, 1" dilations="1, 1" pads_begin="0, 0" pads_end="0, 0" auto_pad="explicit" />
			<input>
				<port id="0" precision="FP32">
					<dim>32</dim>
					<dim>1024</dim>
					<dim>7</dim>
					<dim>7</dim>
				</port>
				<port id="1" precision="FP32">
					<dim>256</dim>
					<dim>1024</dim>
					<dim>1</dim>
					<dim>1</dim>
				</port>
			</input>
			<output>
				<port id="2" precision="FP32">
					<dim>32</dim>
					<dim>256</dim>
					<dim>7</dim>
					<dim>7</dim>
				</port>
			</output>
		</layer>
		<layer id="149" name="Reshape_581" type="Const" version="opset1">
			<data element_type="f32" shape="1, 256, 1, 1" offset="8644096" size="1024" />
			<output>
				<port id="0" precision="FP32">
					<dim>1</dim>
					<dim>256</dim>
					<dim>1</dim>
					<dim>1</dim>
				</port>
			</output>
		</layer>
		<layer id="150" name="/model/layer3/layer3.1/conv1/Conv" type="Add" version="opset1">
			<data auto_broadcast="numpy" />
			<input>
				<port id="0" precision="FP32">
					<dim>32</dim>
					<dim>256</dim>
					<dim>7</dim>
					<dim>7</dim>
				</port>
				<port id="1" precision="FP32">
					<dim>1</dim>
					<dim>256</dim>
					<dim>1</dim>
					<dim>1</dim>
				</port>
			</input>
			<output>
				<port id="2" precision="FP32" names="/model/layer3/layer3.1/conv1/Conv_output_0">
					<dim>32</dim>
					<dim>256</dim>
					<dim>7</dim>
					<dim>7</dim>
				</port>
			</output>
		</layer>
		<layer id="151" name="/model/layer3/layer3.1/relu/Relu" type="ReLU" version="opset1">
			<input>
				<port id="0" precision="FP32">
					<dim>32</dim>
					<dim>256</dim>
					<dim>7</dim>
					<dim>7</dim>
				</port>
			</input>
			<output>
				<port id="1" precision="FP32" names="/model/layer3/layer3.1/relu/Relu_output_0">
					<dim>32</dim>
					<dim>256</dim>
					<dim>7</dim>
					<dim>7</dim>
				</port>
			</output>
		</layer>
		<layer id="152" name="onnx::Conv_594" type="Const" version="opset1">
			<data element_type="f32" shape="256, 256, 3, 3" offset="6284800" size="2359296" />
			<output>
				<port id="0" precision="FP32" names="onnx::Conv_594">
					<dim>256</dim>
					<dim>256</dim>
					<dim>3</dim>
					<dim>3</dim>
				</port>
			</output>
		</layer>
		<layer id="153" name="/model/layer3/layer3.1/conv2/Conv/WithoutBiases" type="Convolution" version="opset1">
			<data strides="1, 1" dilations="1, 1" pads_begin="1, 1" pads_end="1, 1" auto_pad="explicit" />
			<input>
				<port id="0" precision="FP32">
					<dim>32</dim>
					<dim>256</dim>
					<dim>7</dim>
					<dim>7</dim>
				</port>
				<port id="1" precision="FP32">
					<dim>256</dim>
					<dim>256</dim>
					<dim>3</dim>
					<dim>3</dim>
				</port>
			</input>
			<output>
				<port id="2" precision="FP32">
					<dim>32</dim>
					<dim>256</dim>
					<dim>7</dim>
					<dim>7</dim>
				</port>
			</output>
		</layer>
		<layer id="154" name="Reshape_597" type="Const" version="opset1">
			<data element_type="f32" shape="1, 256, 1, 1" offset="8644096" size="1024" />
			<output>
				<port id="0" precision="FP32">
					<dim>1</dim>
					<dim>256</dim>
					<dim>1</dim>
					<dim>1</dim>
				</port>
			</output>
		</layer>
		<layer id="155" name="/model/layer3/layer3.1/conv2/Conv" type="Add" version="opset1">
			<data auto_broadcast="numpy" />
			<input>
				<port id="0" precision="FP32">
					<dim>32</dim>
					<dim>256</dim>
					<dim>7</dim>
					<dim>7</dim>
				</port>
				<port id="1" precision="FP32">
					<dim>1</dim>
					<dim>256</dim>
					<dim>1</dim>
					<dim>1</dim>
				</port>
			</input>
			<output>
				<port id="2" precision="FP32" names="/model/layer3/layer3.1/conv2/Conv_output_0">
					<dim>32</dim>
					<dim>256</dim>
					<dim>7</dim>
					<dim>7</dim>
				</port>
			</output>
		</layer>
		<layer id="156" name="/model/layer3/layer3.1/relu_1/Relu" type="ReLU" version="opset1">
			<input>
				<port id="0" precision="FP32">
					<dim>32</dim>
					<dim>256</dim>
					<dim>7</dim>
					<dim>7</dim>
				</port>
			</input>
			<output>
				<port id="1" precision="FP32" names="/model/layer3/layer3.1/relu_1/Relu_output_0">
					<dim>32</dim>
					<dim>256</dim>
					<dim>7</dim>
					<dim>7</dim>
				</port>
			</output>
		</layer>
		<layer id="157" name="onnx::Conv_597" type="Const" version="opset1">
			<data element_type="f32" shape="1024, 256, 1, 1" offset="8645120" size="1048576" />
			<output>
				<port id="0" precision="FP32" names="onnx::Conv_597">
					<dim>1024</dim>
					<dim>256</dim>
					<dim>1</dim>
					<dim>1</dim>
				</port>
			</output>
		</layer>
		<layer id="158" name="/model/layer3/layer3.1/conv3/Conv/WithoutBiases" type="Convolution" version="opset1">
			<data strides="1, 1" dilations="1, 1" pads_begin="0, 0" pads_end="0, 0" auto_pad="explicit" />
			<input>
				<port id="0" precision="FP32">
					<dim>32</dim>
					<dim>256</dim>
					<dim>7</dim>
					<dim>7</dim>
				</port>
				<port id="1" precision="FP32">
					<dim>1024</dim>
					<dim>256</dim>
					<dim>1</dim>
					<dim>1</dim>
				</port>
			</input>
			<output>
				<port id="2" precision="FP32">
					<dim>32</dim>
					<dim>1024</dim>
					<dim>7</dim>
					<dim>7</dim>
				</port>
			</output>
		</layer>
		<layer id="159" name="Reshape_613" type="Const" version="opset1">
			<data element_type="f32" shape="1, 1024, 1, 1" offset="9693696" size="4096" />
			<output>
				<port id="0" precision="FP32">
					<dim>1</dim>
					<dim>1024</dim>
					<dim>1</dim>
					<dim>1</dim>
				</port>
			</output>
		</layer>
		<layer id="160" name="/model/layer3/layer3.1/conv3/Conv" type="Add" version="opset1">
			<data auto_broadcast="numpy" />
			<input>
				<port id="0" precision="FP32">
					<dim>32</dim>
					<dim>1024</dim>
					<dim>7</dim>
					<dim>7</dim>
				</port>
				<port id="1" precision="FP32">
					<dim>1</dim>
					<dim>1024</dim>
					<dim>1</dim>
					<dim>1</dim>
				</port>
			</input>
			<output>
				<port id="2" precision="FP32" names="/model/layer3/layer3.1/conv3/Conv_output_0">
					<dim>32</dim>
					<dim>1024</dim>
					<dim>7</dim>
					<dim>7</dim>
				</port>
			</output>
		</layer>
		<layer id="161" name="/model/layer3/layer3.1/Add" type="Add" version="opset1">
			<data auto_broadcast="numpy" />
			<input>
				<port id="0" precision="FP32">
					<dim>32</dim>
					<dim>1024</dim>
					<dim>7</dim>
					<dim>7</dim>
				</port>
				<port id="1" precision="FP32">
					<dim>32</dim>
					<dim>1024</dim>
					<dim>7</dim>
					<dim>7</dim>
				</port>
			</input>
			<output>
				<port id="2" precision="FP32" names="/model/layer3/layer3.1/Add_output_0">
					<dim>32</dim>
					<dim>1024</dim>
					<dim>7</dim>
					<dim>7</dim>
				</port>
			</output>
		</layer>
		<layer id="162" name="/model/layer3/layer3.1/relu_2/Relu" type="ReLU" version="opset1">
			<input>
				<port id="0" precision="FP32">
					<dim>32</dim>
					<dim>1024</dim>
					<dim>7</dim>
					<dim>7</dim>
				</port>
			</input>
			<output>
				<port id="1" precision="FP32" names="/model/layer3/layer3.1/relu_2/Relu_output_0">
					<dim>32</dim>
					<dim>1024</dim>
					<dim>7</dim>
					<dim>7</dim>
				</port>
			</output>
		</layer>
		<layer id="163" name="onnx::Conv_600" type="Const" version="opset1">
			<data element_type="f32" shape="256, 1024, 1, 1" offset="8645120" size="1048576" />
			<output>
				<port id="0" precision="FP32" names="onnx::Conv_600">
					<dim>256</dim>
					<dim>1024</dim>
					<dim>1</dim>
					<dim>1</dim>
				</port>
			</output>
		</layer>
		<layer id="164" name="/model/layer3/layer3.2/conv1/Conv/WithoutBiases" type="Convolution" version="opset1">
			<data strides="1, 1" dilations="1, 1" pads_begin="0, 0" pads_end="0, 0" auto_pad="explicit" />
			<input>
				<port id="0" precision="FP32">
					<dim>32</dim>
					<dim>1024</dim>
					<dim>7</dim>
					<dim>7</dim>
				</port>
				<port id="1" precision="FP32">
					<dim>256</dim>
					<dim>1024</dim>
					<dim>1</dim>
					<dim>1</dim>
				</port>
			</input>
			<output>
				<port id="2" precision="FP32">
					<dim>32</dim>
					<dim>256</dim>
					<dim>7</dim>
					<dim>7</dim>
				</port>
			</output>
		</layer>
		<layer id="165" name="Reshape_630" type="Const" version="opset1">
			<data element_type="f32" shape="1, 256, 1, 1" offset="8644096" size="1024" />
			<output>
				<port id="0" precision="FP32">
					<dim>1</dim>
					<dim>256</dim>
					<dim>1</dim>
					<dim>1</dim>
				</port>
			</output>
		</layer>
		<layer id="166" name="/model/layer3/layer3.2/conv1/Conv" type="Add" version="opset1">
			<data auto_broadcast="numpy" />
			<input>
				<port id="0" precision="FP32">
					<dim>32</dim>
					<dim>256</dim>
					<dim>7</dim>
					<dim>7</dim>
				</port>
				<port id="1" precision="FP32">
					<dim>1</dim>
					<dim>256</dim>
					<dim>1</dim>
					<dim>1</dim>
				</port>
			</input>
			<output>
				<port id="2" precision="FP32" names="/model/layer3/layer3.2/conv1/Conv_output_0">
					<dim>32</dim>
					<dim>256</dim>
					<dim>7</dim>
					<dim>7</dim>
				</port>
			</output>
		</layer>
		<layer id="167" name="/model/layer3/layer3.2/relu/Relu" type="ReLU" version="opset1">
			<input>
				<port id="0" precision="FP32">
					<dim>32</dim>
					<dim>256</dim>
					<dim>7</dim>
					<dim>7</dim>
				</port>
			</input>
			<output>
				<port id="1" precision="FP32" names="/model/layer3/layer3.2/relu/Relu_output_0">
					<dim>32</dim>
					<dim>256</dim>
					<dim>7</dim>
					<dim>7</dim>
				</port>
			</output>
		</layer>
		<layer id="168" name="onnx::Conv_603" type="Const" version="opset1">
			<data element_type="f32" shape="256, 256, 3, 3" offset="6284800" size="2359296" />
			<output>
				<port id="0" precision="FP32" names="onnx::Conv_603">
					<dim>256</dim>
					<dim>256</dim>
					<dim>3</dim>
					<dim>3</dim>
				</port>
			</output>
		</layer>
		<layer id="169" name="/model/layer3/layer3.2/conv2/Conv/WithoutBiases" type="Convolution" version="opset1">
			<data strides="1, 1" dilations="1, 1" pads_begin="1, 1" pads_end="1, 1" auto_pad="explicit" />
			<input>
				<port id="0" precision="FP32">
					<dim>32</dim>
					<dim>256</dim>
					<dim>7</dim>
					<dim>7</dim>
				</port>
				<port id="1" precision="FP32">
					<dim>256</dim>
					<dim>256</dim>
					<dim>3</dim>
					<dim>3</dim>
				</port>
			</input>
			<output>
				<port id="2" precision="FP32">
					<dim>32</dim>
					<dim>256</dim>
					<dim>7</dim>
					<dim>7</dim>
				</port>
			</output>
		</layer>
		<layer id="170" name="Reshape_646" type="Const" version="opset1">
			<data element_type="f32" shape="1, 256, 1, 1" offset="8644096" size="1024" />
			<output>
				<port id="0" precision="FP32">
					<dim>1</dim>
					<dim>256</dim>
					<dim>1</dim>
					<dim>1</dim>
				</port>
			</output>
		</layer>
		<layer id="171" name="/model/layer3/layer3.2/conv2/Conv" type="Add" version="opset1">
			<data auto_broadcast="numpy" />
			<input>
				<port id="0" precision="FP32">
					<dim>32</dim>
					<dim>256</dim>
					<dim>7</dim>
					<dim>7</dim>
				</port>
				<port id="1" precision="FP32">
					<dim>1</dim>
					<dim>256</dim>
					<dim>1</dim>
					<dim>1</dim>
				</port>
			</input>
			<output>
				<port id="2" precision="FP32" names="/model/layer3/layer3.2/conv2/Conv_output_0">
					<dim>32</dim>
					<dim>256</dim>
					<dim>7</dim>
					<dim>7</dim>
				</port>
			</output>
		</layer>
		<layer id="172" name="/model/layer3/layer3.2/relu_1/Relu" type="ReLU" version="opset1">
			<input>
				<port id="0" precision="FP32">
					<dim>32</dim>
					<dim>256</dim>
					<dim>7</dim>
					<dim>7</dim>
				</port>
			</input>
			<output>
				<port id="1" precision="FP32" names="/model/layer3/layer3.2/relu_1/Relu_output_0">
					<dim>32</dim>
					<dim>256</dim>
					<dim>7</dim>
					<dim>7</dim>
				</port>
			</output>
		</layer>
		<layer id="173" name="onnx::Conv_606" type="Const" version="opset1">
			<data element_type="f32" shape="1024, 256, 1, 1" offset="8645120" size="1048576" />
			<output>
				<port id="0" precision="FP32" names="onnx::Conv_606">
					<dim>1024</dim>
					<dim>256</dim>
					<dim>1</dim>
					<dim>1</dim>
				</port>
			</output>
		</layer>
		<layer id="174" name="/model/layer3/layer3.2/conv3/Conv/WithoutBiases" type="Convolution" version="opset1">
			<data strides="1, 1" dilations="1, 1" pads_begin="0, 0" pads_end="0, 0" auto_pad="explicit" />
			<input>
				<port id="0" precision="FP32">
					<dim>32</dim>
					<dim>256</dim>
					<dim>7</dim>
					<dim>7</dim>
				</port>
				<port id="1" precision="FP32">
					<dim>1024</dim>
					<dim>256</dim>
					<dim>1</dim>
					<dim>1</dim>
				</port>
			</input>
			<output>
				<port id="2" precision="FP32">
					<dim>32</dim>
					<dim>1024</dim>
					<dim>7</dim>
					<dim>7</dim>
				</port>
			</output>
		</layer>
		<layer id="175" name="Reshape_662" type="Const" version="opset1">
			<data element_type="f32" shape="1, 1024, 1, 1" offset="9693696" size="4096" />
			<output>
				<port id="0" precision="FP32">
					<dim>1</dim>
					<dim>1024</dim>
					<dim>1</dim>
					<dim>1</dim>
				</port>
			</output>
		</layer>
		<layer id="176" name="/model/layer3/layer3.2/conv3/Conv" type="Add" version="opset1">
			<data auto_broadcast="numpy" />
			<input>
				<port id="0" precision="FP32">
					<dim>32</dim>
					<dim>1024</dim>
					<dim>7</dim>
					<dim>7</dim>
				</port>
				<port id="1" precision="FP32">
					<dim>1</dim>
					<dim>1024</dim>
					<dim>1</dim>
					<dim>1</dim>
				</port>
			</input>
			<output>
				<port id="2" precision="FP32" names="/model/layer3/layer3.2/conv3/Conv_output_0">
					<dim>32</dim>
					<dim>1024</dim>
					<dim>7</dim>
					<dim>7</dim>
				</port>
			</output>
		</layer>
		<layer id="177" name="/model/layer3/layer3.2/Add" type="Add" version="opset1">
			<data auto_broadcast="numpy" />
			<input>
				<port id="0" precision="FP32">
					<dim>32</dim>
					<dim>1024</dim>
					<dim>7</dim>
					<dim>7</dim>
				</port>
				<port id="1" precision="FP32">
					<dim>32</dim>
					<dim>1024</dim>
					<dim>7</dim>
					<dim>7</dim>
				</port>
			</input>
			<output>
				<port id="2" precision="FP32" names="/model/layer3/layer3.2/Add_output_0">
					<dim>32</dim>
					<dim>1024</dim>
					<dim>7</dim>
					<dim>7</dim>
				</port>
			</output>
		</layer>
		<layer id="178" name="/model/layer3/layer3.2/relu_2/Relu" type="ReLU" version="opset1">
			<input>
				<port id="0" precision="FP32">
					<dim>32</dim>
					<dim>1024</dim>
					<dim>7</dim>
					<dim>7</dim>
				</port>
			</input>
			<output>
				<port id="1" precision="FP32" names="/model/layer3/layer3.2/relu_2/Relu_output_0">
					<dim>32</dim>
					<dim>1024</dim>
					<dim>7</dim>
					<dim>7</dim>
				</port>
			</output>
		</layer>
		<layer id="179" name="onnx::Conv_609" type="Const" version="opset1">
			<data element_type="f32" shape="256, 1024, 1, 1" offset="8645120" size="1048576" />
			<output>
				<port id="0" precision="FP32" names="onnx::Conv_609">
					<dim>256</dim>
					<dim>1024</dim>
					<dim>1</dim>
					<dim>1</dim>
				</port>
			</output>
		</layer>
		<layer id="180" name="/model/layer3/layer3.3/conv1/Conv/WithoutBiases" type="Convolution" version="opset1">
			<data strides="1, 1" dilations="1, 1" pads_begin="0, 0" pads_end="0, 0" auto_pad="explicit" />
			<input>
				<port id="0" precision="FP32">
					<dim>32</dim>
					<dim>1024</dim>
					<dim>7</dim>
					<dim>7</dim>
				</port>
				<port id="1" precision="FP32">
					<dim>256</dim>
					<dim>1024</dim>
					<dim>1</dim>
					<dim>1</dim>
				</port>
			</input>
			<output>
				<port id="2" precision="FP32">
					<dim>32</dim>
					<dim>256</dim>
					<dim>7</dim>
					<dim>7</dim>
				</port>
			</output>
		</layer>
		<layer id="181" name="Reshape_679" type="Const" version="opset1">
			<data element_type="f32" shape="1, 256, 1, 1" offset="8644096" size="1024" />
			<output>
				<port id="0" precision="FP32">
					<dim>1</dim>
					<dim>256</dim>
					<dim>1</dim>
					<dim>1</dim>
				</port>
			</output>
		</layer>
		<layer id="182" name="/model/layer3/layer3.3/conv1/Conv" type="Add" version="opset1">
			<data auto_broadcast="numpy" />
			<input>
				<port id="0" precision="FP32">
					<dim>32</dim>
					<dim>256</dim>
					<dim>7</dim>
					<dim>7</dim>
				</port>
				<port id="1" precision="FP32">
					<dim>1</dim>
					<dim>256</dim>
					<dim>1</dim>
					<dim>1</dim>
				</port>
			</input>
			<output>
				<port id="2" precision="FP32" names="/model/layer3/layer3.3/conv1/Conv_output_0">
					<dim>32</dim>
					<dim>256</dim>
					<dim>7</dim>
					<dim>7</dim>
				</port>
			</output>
		</layer>
		<layer id="183" name="/model/layer3/layer3.3/relu/Relu" type="ReLU" version="opset1">
			<input>
				<port id="0" precision="FP32">
					<dim>32</dim>
					<dim>256</dim>
					<dim>7</dim>
					<dim>7</dim>
				</port>
			</input>
			<output>
				<port id="1" precision="FP32" names="/model/layer3/layer3.3/relu/Relu_output_0">
					<dim>32</dim>
					<dim>256</dim>
					<dim>7</dim>
					<dim>7</dim>
				</port>
			</output>
		</layer>
		<layer id="184" name="onnx::Conv_612" type="Const" version="opset1">
			<data element_type="f32" shape="256, 256, 3, 3" offset="6284800" size="2359296" />
			<output>
				<port id="0" precision="FP32" names="onnx::Conv_612">
					<dim>256</dim>
					<dim>256</dim>
					<dim>3</dim>
					<dim>3</dim>
				</port>
			</output>
		</layer>
		<layer id="185" name="/model/layer3/layer3.3/conv2/Conv/WithoutBiases" type="Convolution" version="opset1">
			<data strides="1, 1" dilations="1, 1" pads_begin="1, 1" pads_end="1, 1" auto_pad="explicit" />
			<input>
				<port id="0" precision="FP32">
					<dim>32</dim>
					<dim>256</dim>
					<dim>7</dim>
					<dim>7</dim>
				</port>
				<port id="1" precision="FP32">
					<dim>256</dim>
					<dim>256</dim>
					<dim>3</dim>
					<dim>3</dim>
				</port>
			</input>
			<output>
				<port id="2" precision="FP32">
					<dim>32</dim>
					<dim>256</dim>
					<dim>7</dim>
					<dim>7</dim>
				</port>
			</output>
		</layer>
		<layer id="186" name="Reshape_695" type="Const" version="opset1">
			<data element_type="f32" shape="1, 256, 1, 1" offset="8644096" size="1024" />
			<output>
				<port id="0" precision="FP32">
					<dim>1</dim>
					<dim>256</dim>
					<dim>1</dim>
					<dim>1</dim>
				</port>
			</output>
		</layer>
		<layer id="187" name="/model/layer3/layer3.3/conv2/Conv" type="Add" version="opset1">
			<data auto_broadcast="numpy" />
			<input>
				<port id="0" precision="FP32">
					<dim>32</dim>
					<dim>256</dim>
					<dim>7</dim>
					<dim>7</dim>
				</port>
				<port id="1" precision="FP32">
					<dim>1</dim>
					<dim>256</dim>
					<dim>1</dim>
					<dim>1</dim>
				</port>
			</input>
			<output>
				<port id="2" precision="FP32" names="/model/layer3/layer3.3/conv2/Conv_output_0">
					<dim>32</dim>
					<dim>256</dim>
					<dim>7</dim>
					<dim>7</dim>
				</port>
			</output>
		</layer>
		<layer id="188" name="/model/layer3/layer3.3/relu_1/Relu" type="ReLU" version="opset1">
			<input>
				<port id="0" precision="FP32">
					<dim>32</dim>
					<dim>256</dim>
					<dim>7</dim>
					<dim>7</dim>
				</port>
			</input>
			<output>
				<port id="1" precision="FP32" names="/model/layer3/layer3.3/relu_1/Relu_output_0">
					<dim>32</dim>
					<dim>256</dim>
					<dim>7</dim>
					<dim>7</dim>
				</port>
			</output>
		</layer>
		<layer id="189" name="onnx::Conv_615" type="Const" version="opset1">
			<data element_type="f32" shape="1024, 256, 1, 1" offset="8645120" size="1048576" />
			<output>
				<port id="0" precision="FP32" names="onnx::Conv_615">
					<dim>1024</dim>
					<dim>256</dim>
					<dim>1</dim>
					<dim>1</dim>
				</port>
			</output>
		</layer>
		<layer id="190" name="/model/layer3/layer3.3/conv3/Conv/WithoutBiases" type="Convolution" version="opset1">
			<data strides="1, 1" dilations="1, 1" pads_begin="0, 0" pads_end="0, 0" auto_pad="explicit" />
			<input>
				<port id="0" precision="FP32">
					<dim>32</dim>
					<dim>256</dim>
					<dim>7</dim>
					<dim>7</dim>
				</port>
				<port id="1" precision="FP32">
					<dim>1024</dim>
					<dim>256</dim>
					<dim>1</dim>
					<dim>1</dim>
				</port>
			</input>
			<output>
				<port id="2" precision="FP32">
					<dim>32</dim>
					<dim>1024</dim>
					<dim>7</dim>
					<dim>7</dim>
				</port>
			</output>
		</layer>
		<layer id="191" name="Reshape_711" type="Const" version="opset1">
			<data element_type="f32" shape="1, 1024, 1, 1" offset="9693696" size="4096" />
			<output>
				<port id="0" precision="FP32">
					<dim>1</dim>
					<dim>1024</dim>
					<dim>1</dim>
					<dim>1</dim>
				</port>
			</output>
		</layer>
		<layer id="192" name="/model/layer3/layer3.3/conv3/Conv" type="Add" version="opset1">
			<data auto_broadcast="numpy" />
			<input>
				<port id="0" precision="FP32">
					<dim>32</dim>
					<dim>1024</dim>
					<dim>7</dim>
					<dim>7</dim>
				</port>
				<port id="1" precision="FP32">
					<dim>1</dim>
					<dim>1024</dim>
					<dim>1</dim>
					<dim>1</dim>
				</port>
			</input>
			<output>
				<port id="2" precision="FP32" names="/model/layer3/layer3.3/conv3/Conv_output_0">
					<dim>32</dim>
					<dim>1024</dim>
					<dim>7</dim>
					<dim>7</dim>
				</port>
			</output>
		</layer>
		<layer id="193" name="/model/layer3/layer3.3/Add" type="Add" version="opset1">
			<data auto_broadcast="numpy" />
			<input>
				<port id="0" precision="FP32">
					<dim>32</dim>
					<dim>1024</dim>
					<dim>7</dim>
					<dim>7</dim>
				</port>
				<port id="1" precision="FP32">
					<dim>32</dim>
					<dim>1024</dim>
					<dim>7</dim>
					<dim>7</dim>
				</port>
			</input>
			<output>
				<port id="2" precision="FP32" names="/model/layer3/layer3.3/Add_output_0">
					<dim>32</dim>
					<dim>1024</dim>
					<dim>7</dim>
					<dim>7</dim>
				</port>
			</output>
		</layer>
		<layer id="194" name="/model/layer3/layer3.3/relu_2/Relu" type="ReLU" version="opset1">
			<input>
				<port id="0" precision="FP32">
					<dim>32</dim>
					<dim>1024</dim>
					<dim>7</dim>
					<dim>7</dim>
				</port>
			</input>
			<output>
				<port id="1" precision="FP32" names="/model/layer3/layer3.3/relu_2/Relu_output_0">
					<dim>32</dim>
					<dim>1024</dim>
					<dim>7</dim>
					<dim>7</dim>
				</port>
			</output>
		</layer>
		<layer id="195" name="onnx::Conv_618" type="Const" version="opset1">
			<data element_type="f32" shape="256, 1024, 1, 1" offset="8645120" size="1048576" />
			<output>
				<port id="0" precision="FP32" names="onnx::Conv_618">
					<dim>256</dim>
					<dim>1024</dim>
					<dim>1</dim>
					<dim>1</dim>
				</port>
			</output>
		</layer>
		<layer id="196" name="/model/layer3/layer3.4/conv1/Conv/WithoutBiases" type="Convolution" version="opset1">
			<data strides="1, 1" dilations="1, 1" pads_begin="0, 0" pads_end="0, 0" auto_pad="explicit" />
			<input>
				<port id="0" precision="FP32">
					<dim>32</dim>
					<dim>1024</dim>
					<dim>7</dim>
					<dim>7</dim>
				</port>
				<port id="1" precision="FP32">
					<dim>256</dim>
					<dim>1024</dim>
					<dim>1</dim>
					<dim>1</dim>
				</port>
			</input>
			<output>
				<port id="2" precision="FP32">
					<dim>32</dim>
					<dim>256</dim>
					<dim>7</dim>
					<dim>7</dim>
				</port>
			</output>
		</layer>
		<layer id="197" name="Reshape_728" type="Const" version="opset1">
			<data element_type="f32" shape="1, 256, 1, 1" offset="8644096" size="1024" />
			<output>
				<port id="0" precision="FP32">
					<dim>1</dim>
					<dim>256</dim>
					<dim>1</dim>
					<dim>1</dim>
				</port>
			</output>
		</layer>
		<layer id="198" name="/model/layer3/layer3.4/conv1/Conv" type="Add" version="opset1">
			<data auto_broadcast="numpy" />
			<input>
				<port id="0" precision="FP32">
					<dim>32</dim>
					<dim>256</dim>
					<dim>7</dim>
					<dim>7</dim>
				</port>
				<port id="1" precision="FP32">
					<dim>1</dim>
					<dim>256</dim>
					<dim>1</dim>
					<dim>1</dim>
				</port>
			</input>
			<output>
				<port id="2" precision="FP32" names="/model/layer3/layer3.4/conv1/Conv_output_0">
					<dim>32</dim>
					<dim>256</dim>
					<dim>7</dim>
					<dim>7</dim>
				</port>
			</output>
		</layer>
		<layer id="199" name="/model/layer3/layer3.4/relu/Relu" type="ReLU" version="opset1">
			<input>
				<port id="0" precision="FP32">
					<dim>32</dim>
					<dim>256</dim>
					<dim>7</dim>
					<dim>7</dim>
				</port>
			</input>
			<output>
				<port id="1" precision="FP32" names="/model/layer3/layer3.4/relu/Relu_output_0">
					<dim>32</dim>
					<dim>256</dim>
					<dim>7</dim>
					<dim>7</dim>
				</port>
			</output>
		</layer>
		<layer id="200" name="onnx::Conv_621" type="Const" version="opset1">
			<data element_type="f32" shape="256, 256, 3, 3" offset="6284800" size="2359296" />
			<output>
				<port id="0" precision="FP32" names="onnx::Conv_621">
					<dim>256</dim>
					<dim>256</dim>
					<dim>3</dim>
					<dim>3</dim>
				</port>
			</output>
		</layer>
		<layer id="201" name="/model/layer3/layer3.4/conv2/Conv/WithoutBiases" type="Convolution" version="opset1">
			<data strides="1, 1" dilations="1, 1" pads_begin="1, 1" pads_end="1, 1" auto_pad="explicit" />
			<input>
				<port id="0" precision="FP32">
					<dim>32</dim>
					<dim>256</dim>
					<dim>7</dim>
					<dim>7</dim>
				</port>
				<port id="1" precision="FP32">
					<dim>256</dim>
					<dim>256</dim>
					<dim>3</dim>
					<dim>3</dim>
				</port>
			</input>
			<output>
				<port id="2" precision="FP32">
					<dim>32</dim>
					<dim>256</dim>
					<dim>7</dim>
					<dim>7</dim>
				</port>
			</output>
		</layer>
		<layer id="202" name="Reshape_744" type="Const" version="opset1">
			<data element_type="f32" shape="1, 256, 1, 1" offset="8644096" size="1024" />
			<output>
				<port id="0" precision="FP32">
					<dim>1</dim>
					<dim>256</dim>
					<dim>1</dim>
					<dim>1</dim>
				</port>
			</output>
		</layer>
		<layer id="203" name="/model/layer3/layer3.4/conv2/Conv" type="Add" version="opset1">
			<data auto_broadcast="numpy" />
			<input>
				<port id="0" precision="FP32">
					<dim>32</dim>
					<dim>256</dim>
					<dim>7</dim>
					<dim>7</dim>
				</port>
				<port id="1" precision="FP32">
					<dim>1</dim>
					<dim>256</dim>
					<dim>1</dim>
					<dim>1</dim>
				</port>
			</input>
			<output>
				<port id="2" precision="FP32" names="/model/layer3/layer3.4/conv2/Conv_output_0">
					<dim>32</dim>
					<dim>256</dim>
					<dim>7</dim>
					<dim>7</dim>
				</port>
			</output>
		</layer>
		<layer id="204" name="/model/layer3/layer3.4/relu_1/Relu" type="ReLU" version="opset1">
			<input>
				<port id="0" precision="FP32">
					<dim>32</dim>
					<dim>256</dim>
					<dim>7</dim>
					<dim>7</dim>
				</port>
			</input>
			<output>
				<port id="1" precision="FP32" names="/model/layer3/layer3.4/relu_1/Relu_output_0">
					<dim>32</dim>
					<dim>256</dim>
					<dim>7</dim>
					<dim>7</dim>
				</port>
			</output>
		</layer>
		<layer id="205" name="onnx::Conv_624" type="Const" version="opset1">
			<data element_type="f32" shape="1024, 256, 1, 1" offset="8645120" size="1048576" />
			<output>
				<port id="0" precision="FP32" names="onnx::Conv_624">
					<dim>1024</dim>
					<dim>256</dim>
					<dim>1</dim>
					<dim>1</dim>
				</port>
			</output>
		</layer>
		<layer id="206" name="/model/layer3/layer3.4/conv3/Conv/WithoutBiases" type="Convolution" version="opset1">
			<data strides="1, 1" dilations="1, 1" pads_begin="0, 0" pads_end="0, 0" auto_pad="explicit" />
			<input>
				<port id="0" precision="FP32">
					<dim>32</dim>
					<dim>256</dim>
					<dim>7</dim>
					<dim>7</dim>
				</port>
				<port id="1" precision="FP32">
					<dim>1024</dim>
					<dim>256</dim>
					<dim>1</dim>
					<dim>1</dim>
				</port>
			</input>
			<output>
				<port id="2" precision="FP32">
					<dim>32</dim>
					<dim>1024</dim>
					<dim>7</dim>
					<dim>7</dim>
				</port>
			</output>
		</layer>
		<layer id="207" name="Reshape_760" type="Const" version="opset1">
			<data element_type="f32" shape="1, 1024, 1, 1" offset="9693696" size="4096" />
			<output>
				<port id="0" precision="FP32">
					<dim>1</dim>
					<dim>1024</dim>
					<dim>1</dim>
					<dim>1</dim>
				</port>
			</output>
		</layer>
		<layer id="208" name="/model/layer3/layer3.4/conv3/Conv" type="Add" version="opset1">
			<data auto_broadcast="numpy" />
			<input>
				<port id="0" precision="FP32">
					<dim>32</dim>
					<dim>1024</dim>
					<dim>7</dim>
					<dim>7</dim>
				</port>
				<port id="1" precision="FP32">
					<dim>1</dim>
					<dim>1024</dim>
					<dim>1</dim>
					<dim>1</dim>
				</port>
			</input>
			<output>
				<port id="2" precision="FP32" names="/model/layer3/layer3.4/conv3/Conv_output_0">
					<dim>32</dim>
					<dim>1024</dim>
					<dim>7</dim>
					<dim>7</dim>
				</port>
			</output>
		</layer>
		<layer id="209" name="/model/layer3/layer3.4/Add" type="Add" version="opset1">
			<data auto_broadcast="numpy" />
			<input>
				<port id="0" precision="FP32">
					<dim>32</dim>
					<dim>1024</dim>
					<dim>7</dim>
					<dim>7</dim>
				</port>
				<port id="1" precision="FP32">
					<dim>32</dim>
					<dim>1024</dim>
					<dim>7</dim>
					<dim>7</dim>
				</port>
			</input>
			<output>
				<port id="2" precision="FP32" names="/model/layer3/layer3.4/Add_output_0">
					<dim>32</dim>
					<dim>1024</dim>
					<dim>7</dim>
					<dim>7</dim>
				</port>
			</output>
		</layer>
		<layer id="210" name="/model/layer3/layer3.4/relu_2/Relu" type="ReLU" version="opset1">
			<input>
				<port id="0" precision="FP32">
					<dim>32</dim>
					<dim>1024</dim>
					<dim>7</dim>
					<dim>7</dim>
				</port>
			</input>
			<output>
				<port id="1" precision="FP32" names="/model/layer3/layer3.4/relu_2/Relu_output_0">
					<dim>32</dim>
					<dim>1024</dim>
					<dim>7</dim>
					<dim>7</dim>
				</port>
			</output>
		</layer>
		<layer id="211" name="onnx::Conv_627" type="Const" version="opset1">
			<data element_type="f32" shape="256, 1024, 1, 1" offset="8645120" size="1048576" />
			<output>
				<port id="0" precision="FP32" names="onnx::Conv_627">
					<dim>256</dim>
					<dim>1024</dim>
					<dim>1</dim>
					<dim>1</dim>
				</port>
			</output>
		</layer>
		<layer id="212" name="/model/layer3/layer3.5/conv1/Conv/WithoutBiases" type="Convolution" version="opset1">
			<data strides="1, 1" dilations="1, 1" pads_begin="0, 0" pads_end="0, 0" auto_pad="explicit" />
			<input>
				<port id="0" precision="FP32">
					<dim>32</dim>
					<dim>1024</dim>
					<dim>7</dim>
					<dim>7</dim>
				</port>
				<port id="1" precision="FP32">
					<dim>256</dim>
					<dim>1024</dim>
					<dim>1</dim>
					<dim>1</dim>
				</port>
			</input>
			<output>
				<port id="2" precision="FP32">
					<dim>32</dim>
					<dim>256</dim>
					<dim>7</dim>
					<dim>7</dim>
				</port>
			</output>
		</layer>
		<layer id="213" name="Reshape_777" type="Const" version="opset1">
			<data element_type="f32" shape="1, 256, 1, 1" offset="8644096" size="1024" />
			<output>
				<port id="0" precision="FP32">
					<dim>1</dim>
					<dim>256</dim>
					<dim>1</dim>
					<dim>1</dim>
				</port>
			</output>
		</layer>
		<layer id="214" name="/model/layer3/layer3.5/conv1/Conv" type="Add" version="opset1">
			<data auto_broadcast="numpy" />
			<input>
				<port id="0" precision="FP32">
					<dim>32</dim>
					<dim>256</dim>
					<dim>7</dim>
					<dim>7</dim>
				</port>
				<port id="1" precision="FP32">
					<dim>1</dim>
					<dim>256</dim>
					<dim>1</dim>
					<dim>1</dim>
				</port>
			</input>
			<output>
				<port id="2" precision="FP32" names="/model/layer3/layer3.5/conv1/Conv_output_0">
					<dim>32</dim>
					<dim>256</dim>
					<dim>7</dim>
					<dim>7</dim>
				</port>
			</output>
		</layer>
		<layer id="215" name="/model/layer3/layer3.5/relu/Relu" type="ReLU" version="opset1">
			<input>
				<port id="0" precision="FP32">
					<dim>32</dim>
					<dim>256</dim>
					<dim>7</dim>
					<dim>7</dim>
				</port>
			</input>
			<output>
				<port id="1" precision="FP32" names="/model/layer3/layer3.5/relu/Relu_output_0">
					<dim>32</dim>
					<dim>256</dim>
					<dim>7</dim>
					<dim>7</dim>
				</port>
			</output>
		</layer>
		<layer id="216" name="onnx::Conv_630" type="Const" version="opset1">
			<data element_type="f32" shape="256, 256, 3, 3" offset="6284800" size="2359296" />
			<output>
				<port id="0" precision="FP32" names="onnx::Conv_630">
					<dim>256</dim>
					<dim>256</dim>
					<dim>3</dim>
					<dim>3</dim>
				</port>
			</output>
		</layer>
		<layer id="217" name="/model/layer3/layer3.5/conv2/Conv/WithoutBiases" type="Convolution" version="opset1">
			<data strides="1, 1" dilations="1, 1" pads_begin="1, 1" pads_end="1, 1" auto_pad="explicit" />
			<input>
				<port id="0" precision="FP32">
					<dim>32</dim>
					<dim>256</dim>
					<dim>7</dim>
					<dim>7</dim>
				</port>
				<port id="1" precision="FP32">
					<dim>256</dim>
					<dim>256</dim>
					<dim>3</dim>
					<dim>3</dim>
				</port>
			</input>
			<output>
				<port id="2" precision="FP32">
					<dim>32</dim>
					<dim>256</dim>
					<dim>7</dim>
					<dim>7</dim>
				</port>
			</output>
		</layer>
		<layer id="218" name="Reshape_793" type="Const" version="opset1">
			<data element_type="f32" shape="1, 256, 1, 1" offset="8644096" size="1024" />
			<output>
				<port id="0" precision="FP32">
					<dim>1</dim>
					<dim>256</dim>
					<dim>1</dim>
					<dim>1</dim>
				</port>
			</output>
		</layer>
		<layer id="219" name="/model/layer3/layer3.5/conv2/Conv" type="Add" version="opset1">
			<data auto_broadcast="numpy" />
			<input>
				<port id="0" precision="FP32">
					<dim>32</dim>
					<dim>256</dim>
					<dim>7</dim>
					<dim>7</dim>
				</port>
				<port id="1" precision="FP32">
					<dim>1</dim>
					<dim>256</dim>
					<dim>1</dim>
					<dim>1</dim>
				</port>
			</input>
			<output>
				<port id="2" precision="FP32" names="/model/layer3/layer3.5/conv2/Conv_output_0">
					<dim>32</dim>
					<dim>256</dim>
					<dim>7</dim>
					<dim>7</dim>
				</port>
			</output>
		</layer>
		<layer id="220" name="/model/layer3/layer3.5/relu_1/Relu" type="ReLU" version="opset1">
			<input>
				<port id="0" precision="FP32">
					<dim>32</dim>
					<dim>256</dim>
					<dim>7</dim>
					<dim>7</dim>
				</port>
			</input>
			<output>
				<port id="1" precision="FP32" names="/model/layer3/layer3.5/relu_1/Relu_output_0">
					<dim>32</dim>
					<dim>256</dim>
					<dim>7</dim>
					<dim>7</dim>
				</port>
			</output>
		</layer>
		<layer id="221" name="onnx::Conv_633" type="Const" version="opset1">
			<data element_type="f32" shape="1024, 256, 1, 1" offset="8645120" size="1048576" />
			<output>
				<port id="0" precision="FP32" names="onnx::Conv_633">
					<dim>1024</dim>
					<dim>256</dim>
					<dim>1</dim>
					<dim>1</dim>
				</port>
			</output>
		</layer>
		<layer id="222" name="/model/layer3/layer3.5/conv3/Conv/WithoutBiases" type="Convolution" version="opset1">
			<data strides="1, 1" dilations="1, 1" pads_begin="0, 0" pads_end="0, 0" auto_pad="explicit" />
			<input>
				<port id="0" precision="FP32">
					<dim>32</dim>
					<dim>256</dim>
					<dim>7</dim>
					<dim>7</dim>
				</port>
				<port id="1" precision="FP32">
					<dim>1024</dim>
					<dim>256</dim>
					<dim>1</dim>
					<dim>1</dim>
				</port>
			</input>
			<output>
				<port id="2" precision="FP32">
					<dim>32</dim>
					<dim>1024</dim>
					<dim>7</dim>
					<dim>7</dim>
				</port>
			</output>
		</layer>
		<layer id="223" name="Reshape_809" type="Const" version="opset1">
			<data element_type="f32" shape="1, 1024, 1, 1" offset="9693696" size="4096" />
			<output>
				<port id="0" precision="FP32">
					<dim>1</dim>
					<dim>1024</dim>
					<dim>1</dim>
					<dim>1</dim>
				</port>
			</output>
		</layer>
		<layer id="224" name="/model/layer3/layer3.5/conv3/Conv" type="Add" version="opset1">
			<data auto_broadcast="numpy" />
			<input>
				<port id="0" precision="FP32">
					<dim>32</dim>
					<dim>1024</dim>
					<dim>7</dim>
					<dim>7</dim>
				</port>
				<port id="1" precision="FP32">
					<dim>1</dim>
					<dim>1024</dim>
					<dim>1</dim>
					<dim>1</dim>
				</port>
			</input>
			<output>
				<port id="2" precision="FP32" names="/model/layer3/layer3.5/conv3/Conv_output_0">
					<dim>32</dim>
					<dim>1024</dim>
					<dim>7</dim>
					<dim>7</dim>
				</port>
			</output>
		</layer>
		<layer id="225" name="/model/layer3/layer3.5/Add" type="Add" version="opset1">
			<data auto_broadcast="numpy" />
			<input>
				<port id="0" precision="FP32">
					<dim>32</dim>
					<dim>1024</dim>
					<dim>7</dim>
					<dim>7</dim>
				</port>
				<port id="1" precision="FP32">
					<dim>32</dim>
					<dim>1024</dim>
					<dim>7</dim>
					<dim>7</dim>
				</port>
			</input>
			<output>
				<port id="2" precision="FP32" names="/model/layer3/layer3.5/Add_output_0">
					<dim>32</dim>
					<dim>1024</dim>
					<dim>7</dim>
					<dim>7</dim>
				</port>
			</output>
		</layer>
		<layer id="226" name="/model/layer3/layer3.5/relu_2/Relu" type="ReLU" version="opset1">
			<input>
				<port id="0" precision="FP32">
					<dim>32</dim>
					<dim>1024</dim>
					<dim>7</dim>
					<dim>7</dim>
				</port>
			</input>
			<output>
				<port id="1" precision="FP32" names="/model/layer3/layer3.5/relu_2/Relu_output_0">
					<dim>32</dim>
					<dim>1024</dim>
					<dim>7</dim>
					<dim>7</dim>
				</port>
			</output>
		</layer>
		<layer id="227" name="onnx::Conv_636" type="Const" version="opset1">
			<data element_type="f32" shape="512, 1024, 1, 1" offset="11799040" size="2097152" />
			<output>
				<port id="0" precision="FP32" names="onnx::Conv_636">
					<dim>512</dim>
					<dim>1024</dim>
					<dim>1</dim>
					<dim>1</dim>
				</port>
			</output>
		</layer>
		<layer id="228" name="/model/layer4/layer4.0/conv1/Conv/WithoutBiases" type="Convolution" version="opset1">
			<data strides="1, 1" dilations="1, 1" pads_begin="0, 0" pads_end="0, 0" auto_pad="explicit" />
			<input>
				<port id="0" precision="FP32">
					<dim>32</dim>
					<dim>1024</dim>
					<dim>7</dim>
					<dim>7</dim>
				</port>
				<port id="1" precision="FP32">
					<dim>512</dim>
					<dim>1024</dim>
					<dim>1</dim>
					<dim>1</dim>
				</port>
			</input>
			<output>
				<port id="2" precision="FP32">
					<dim>32</dim>
					<dim>512</dim>
					<dim>7</dim>
					<dim>7</dim>
				</port>
			</output>
		</layer>
		<layer id="229" name="Reshape_826" type="Const" version="opset1">
			<data element_type="f32" shape="1, 512, 1, 1" offset="13896192" size="2048" />
			<output>
				<port id="0" precision="FP32">
					<dim>1</dim>
					<dim>512</dim>
					<dim>1</dim>
					<dim>1</dim>
				</port>
			</output>
		</layer>
		<layer id="230" name="/model/layer4/layer4.0/conv1/Conv" type="Add" version="opset1">
			<data auto_broadcast="numpy" />
			<input>
				<port id="0" precision="FP32">
					<dim>32</dim>
					<dim>512</dim>
					<dim>7</dim>
					<dim>7</dim>
				</port>
				<port id="1" precision="FP32">
					<dim>1</dim>
					<dim>512</dim>
					<dim>1</dim>
					<dim>1</dim>
				</port>
			</input>
			<output>
				<port id="2" precision="FP32" names="/model/layer4/layer4.0/conv1/Conv_output_0">
					<dim>32</dim>
					<dim>512</dim>
					<dim>7</dim>
					<dim>7</dim>
				</port>
			</output>
		</layer>
		<layer id="231" name="/model/layer4/layer4.0/relu/Relu" type="ReLU" version="opset1">
			<input>
				<port id="0" precision="FP32">
					<dim>32</dim>
					<dim>512</dim>
					<dim>7</dim>
					<dim>7</dim>
				</port>
			</input>
			<output>
				<port id="1" precision="FP32" names="/model/layer4/layer4.0/relu/Relu_output_0">
					<dim>32</dim>
					<dim>512</dim>
					<dim>7</dim>
					<dim>7</dim>
				</port>
			</output>
		</layer>
		<layer id="232" name="onnx::Conv_639" type="Const" version="opset1">
			<data element_type="f32" shape="512, 512, 3, 3" offset="13898240" size="9437184" />
			<output>
				<port id="0" precision="FP32" names="onnx::Conv_639">
					<dim>512</dim>
					<dim>512</dim>
					<dim>3</dim>
					<dim>3</dim>
				</port>
			</output>
		</layer>
		<layer id="233" name="/model/layer4/layer4.0/conv2/Conv/WithoutBiases" type="Convolution" version="opset1">
			<data strides="2, 2" dilations="1, 1" pads_begin="1, 1" pads_end="1, 1" auto_pad="explicit" />
			<input>
				<port id="0" precision="FP32">
					<dim>32</dim>
					<dim>512</dim>
					<dim>7</dim>
					<dim>7</dim>
				</port>
				<port id="1" precision="FP32">
					<dim>512</dim>
					<dim>512</dim>
					<dim>3</dim>
					<dim>3</dim>
				</port>
			</input>
			<output>
				<port id="2" precision="FP32">
					<dim>32</dim>
					<dim>512</dim>
					<dim>4</dim>
					<dim>4</dim>
				</port>
			</output>
		</layer>
		<layer id="234" name="Reshape_842" type="Const" version="opset1">
			<data element_type="f32" shape="1, 512, 1, 1" offset="13896192" size="2048" />
			<output>
				<port id="0" precision="FP32">
					<dim>1</dim>
					<dim>512</dim>
					<dim>1</dim>
					<dim>1</dim>
				</port>
			</output>
		</layer>
		<layer id="235" name="/model/layer4/layer4.0/conv2/Conv" type="Add" version="opset1">
			<data auto_broadcast="numpy" />
			<input>
				<port id="0" precision="FP32">
					<dim>32</dim>
					<dim>512</dim>
					<dim>4</dim>
					<dim>4</dim>
				</port>
				<port id="1" precision="FP32">
					<dim>1</dim>
					<dim>512</dim>
					<dim>1</dim>
					<dim>1</dim>
				</port>
			</input>
			<output>
				<port id="2" precision="FP32" names="/model/layer4/layer4.0/conv2/Conv_output_0">
					<dim>32</dim>
					<dim>512</dim>
					<dim>4</dim>
					<dim>4</dim>
				</port>
			</output>
		</layer>
		<layer id="236" name="/model/layer4/layer4.0/relu_1/Relu" type="ReLU" version="opset1">
			<input>
				<port id="0" precision="FP32">
					<dim>32</dim>
					<dim>512</dim>
					<dim>4</dim>
					<dim>4</dim>
				</port>
			</input>
			<output>
				<port id="1" precision="FP32" names="/model/layer4/layer4.0/relu_1/Relu_output_0">
					<dim>32</dim>
					<dim>512</dim>
					<dim>4</dim>
					<dim>4</dim>
				</port>
			</output>
		</layer>
		<layer id="237" name="onnx::Conv_642" type="Const" version="opset1">
			<data element_type="f32" shape="2048, 512, 1, 1" offset="23335424" size="4194304" />
			<output>
				<port id="0" precision="FP32" names="onnx::Conv_642">
					<dim>2048</dim>
					<dim>512</dim>
					<dim>1</dim>
					<dim>1</dim>
				</port>
			</output>
		</layer>
		<layer id="238" name="/model/layer4/layer4.0/conv3/Conv/WithoutBiases" type="Convolution" version="opset1">
			<data strides="1, 1" dilations="1, 1" pads_begin="0, 0" pads_end="0, 0" auto_pad="explicit" />
			<input>
				<port id="0" precision="FP32">
					<dim>32</dim>
					<dim>512</dim>
					<dim>4</dim>
					<dim>4</dim>
				</port>
				<port id="1" precision="FP32">
					<dim>2048</dim>
					<dim>512</dim>
					<dim>1</dim>
					<dim>1</dim>
				</port>
			</input>
			<output>
				<port id="2" precision="FP32">
					<dim>32</dim>
					<dim>2048</dim>
					<dim>4</dim>
					<dim>4</dim>
				</port>
			</output>
		</layer>
		<layer id="239" name="Reshape_858" type="Const" version="opset1">
			<data element_type="f32" shape="1, 2048, 1, 1" offset="27529728" size="8192" />
			<output>
				<port id="0" precision="FP32">
					<dim>1</dim>
					<dim>2048</dim>
					<dim>1</dim>
					<dim>1</dim>
				</port>
			</output>
		</layer>
		<layer id="240" name="/model/layer4/layer4.0/conv3/Conv" type="Add" version="opset1">
			<data auto_broadcast="numpy" />
			<input>
				<port id="0" precision="FP32">
					<dim>32</dim>
					<dim>2048</dim>
					<dim>4</dim>
					<dim>4</dim>
				</port>
				<port id="1" precision="FP32">
					<dim>1</dim>
					<dim>2048</dim>
					<dim>1</dim>
					<dim>1</dim>
				</port>
			</input>
			<output>
				<port id="2" precision="FP32" names="/model/layer4/layer4.0/conv3/Conv_output_0">
					<dim>32</dim>
					<dim>2048</dim>
					<dim>4</dim>
					<dim>4</dim>
				</port>
			</output>
		</layer>
		<layer id="241" name="onnx::Conv_645" type="Const" version="opset1">
			<data element_type="f32" shape="2048, 1024, 1, 1" offset="27537920" size="8388608" />
			<output>
				<port id="0" precision="FP32" names="onnx::Conv_645">
					<dim>2048</dim>
					<dim>1024</dim>
					<dim>1</dim>
					<dim>1</dim>
				</port>
			</output>
		</layer>
		<layer id="242" name="/model/layer4/layer4.0/downsample/downsample.0/Conv/WithoutBiases" type="Convolution" version="opset1">
			<data strides="2, 2" dilations="1, 1" pads_begin="0, 0" pads_end="0, 0" auto_pad="explicit" />
			<input>
				<port id="0" precision="FP32">
					<dim>32</dim>
					<dim>1024</dim>
					<dim>7</dim>
					<dim>7</dim>
				</port>
				<port id="1" precision="FP32">
					<dim>2048</dim>
					<dim>1024</dim>
					<dim>1</dim>
					<dim>1</dim>
				</port>
			</input>
			<output>
				<port id="2" precision="FP32">
					<dim>32</dim>
					<dim>2048</dim>
					<dim>4</dim>
					<dim>4</dim>
				</port>
			</output>
		</layer>
		<layer id="243" name="Reshape_873" type="Const" version="opset1">
			<data element_type="f32" shape="1, 2048, 1, 1" offset="27529728" size="8192" />
			<output>
				<port id="0" precision="FP32">
					<dim>1</dim>
					<dim>2048</dim>
					<dim>1</dim>
					<dim>1</dim>
				</port>
			</output>
		</layer>
		<layer id="244" name="/model/layer4/layer4.0/downsample/downsample.0/Conv" type="Add" version="opset1">
			<data auto_broadcast="numpy" />
			<input>
				<port id="0" precision="FP32">
					<dim>32</dim>
					<dim>2048</dim>
					<dim>4</dim>
					<dim>4</dim>
				</port>
				<port id="1" precision="FP32">
					<dim>1</dim>
					<dim>2048</dim>
					<dim>1</dim>
					<dim>1</dim>
				</port>
			</input>
			<output>
				<port id="2" precision="FP32" names="/model/layer4/layer4.0/downsample/downsample.0/Conv_output_0">
					<dim>32</dim>
					<dim>2048</dim>
					<dim>4</dim>
					<dim>4</dim>
				</port>
			</output>
		</layer>
		<layer id="245" name="/model/layer4/layer4.0/Add" type="Add" version="opset1">
			<data auto_broadcast="numpy" />
			<input>
				<port id="0" precision="FP32">
					<dim>32</dim>
					<dim>2048</dim>
					<dim>4</dim>
					<dim>4</dim>
				</port>
				<port id="1" precision="FP32">
					<dim>32</dim>
					<dim>2048</dim>
					<dim>4</dim>
					<dim>4</dim>
				</port>
			</input>
			<output>
				<port id="2" precision="FP32" names="/model/layer4/layer4.0/Add_output_0">
					<dim>32</dim>
					<dim>2048</dim>
					<dim>4</dim>
					<dim>4</dim>
				</port>
			</output>
		</layer>
		<layer id="246" name="/model/layer4/layer4.0/relu_2/Relu" type="ReLU" version="opset1">
			<input>
				<port id="0" precision="FP32">
					<dim>32</dim>
					<dim>2048</dim>
					<dim>4</dim>
					<dim>4</dim>
				</port>
			</input>
			<output>
				<port id="1" precision="FP32" names="/model/layer4/layer4.0/relu_2/Relu_output_0">
					<dim>32</dim>
					<dim>2048</dim>
					<dim>4</dim>
					<dim>4</dim>
				</port>
			</output>
		</layer>
		<layer id="247" name="onnx::Conv_648" type="Const" version="opset1">
			<data element_type="f32" shape="512, 2048, 1, 1" offset="23335424" size="4194304" />
			<output>
				<port id="0" precision="FP32" names="onnx::Conv_648">
					<dim>512</dim>
					<dim>2048</dim>
					<dim>1</dim>
					<dim>1</dim>
				</port>
			</output>
		</layer>
		<layer id="248" name="/model/layer4/layer4.1/conv1/Conv/WithoutBiases" type="Convolution" version="opset1">
			<data strides="1, 1" dilations="1, 1" pads_begin="0, 0" pads_end="0, 0" auto_pad="explicit" />
			<input>
				<port id="0" precision="FP32">
					<dim>32</dim>
					<dim>2048</dim>
					<dim>4</dim>
					<dim>4</dim>
				</port>
				<port id="1" precision="FP32">
					<dim>512</dim>
					<dim>2048</dim>
					<dim>1</dim>
					<dim>1</dim>
				</port>
			</input>
			<output>
				<port id="2" precision="FP32">
					<dim>32</dim>
					<dim>512</dim>
					<dim>4</dim>
					<dim>4</dim>
				</port>
			</output>
		</layer>
		<layer id="249" name="Reshape_890" type="Const" version="opset1">
			<data element_type="f32" shape="1, 512, 1, 1" offset="13896192" size="2048" />
			<output>
				<port id="0" precision="FP32">
					<dim>1</dim>
					<dim>512</dim>
					<dim>1</dim>
					<dim>1</dim>
				</port>
			</output>
		</layer>
		<layer id="250" name="/model/layer4/layer4.1/conv1/Conv" type="Add" version="opset1">
			<data auto_broadcast="numpy" />
			<input>
				<port id="0" precision="FP32">
					<dim>32</dim>
					<dim>512</dim>
					<dim>4</dim>
					<dim>4</dim>
				</port>
				<port id="1" precision="FP32">
					<dim>1</dim>
					<dim>512</dim>
					<dim>1</dim>
					<dim>1</dim>
				</port>
			</input>
			<output>
				<port id="2" precision="FP32" names="/model/layer4/layer4.1/conv1/Conv_output_0">
					<dim>32</dim>
					<dim>512</dim>
					<dim>4</dim>
					<dim>4</dim>
				</port>
			</output>
		</layer>
		<layer id="251" name="/model/layer4/layer4.1/relu/Relu" type="ReLU" version="opset1">
			<input>
				<port id="0" precision="FP32">
					<dim>32</dim>
					<dim>512</dim>
					<dim>4</dim>
					<dim>4</dim>
				</port>
			</input>
			<output>
				<port id="1" precision="FP32" names="/model/layer4/layer4.1/relu/Relu_output_0">
					<dim>32</dim>
					<dim>512</dim>
					<dim>4</dim>
					<dim>4</dim>
				</port>
			</output>
		</layer>
		<layer id="252" name="onnx::Conv_651" type="Const" version="opset1">
			<data element_type="f32" shape="512, 512, 3, 3" offset="13898240" size="9437184" />
			<output>
				<port id="0" precision="FP32" names="onnx::Conv_651">
					<dim>512</dim>
					<dim>512</dim>
					<dim>3</dim>
					<dim>3</dim>
				</port>
			</output>
		</layer>
		<layer id="253" name="/model/layer4/layer4.1/conv2/Conv/WithoutBiases" type="Convolution" version="opset1">
			<data strides="1, 1" dilations="1, 1" pads_begin="1, 1" pads_end="1, 1" auto_pad="explicit" />
			<input>
				<port id="0" precision="FP32">
					<dim>32</dim>
					<dim>512</dim>
					<dim>4</dim>
					<dim>4</dim>
				</port>
				<port id="1" precision="FP32">
					<dim>512</dim>
					<dim>512</dim>
					<dim>3</dim>
					<dim>3</dim>
				</port>
			</input>
			<output>
				<port id="2" precision="FP32">
					<dim>32</dim>
					<dim>512</dim>
					<dim>4</dim>
					<dim>4</dim>
				</port>
			</output>
		</layer>
		<layer id="254" name="Reshape_906" type="Const" version="opset1">
			<data element_type="f32" shape="1, 512, 1, 1" offset="13896192" size="2048" />
			<output>
				<port id="0" precision="FP32">
					<dim>1</dim>
					<dim>512</dim>
					<dim>1</dim>
					<dim>1</dim>
				</port>
			</output>
		</layer>
		<layer id="255" name="/model/layer4/layer4.1/conv2/Conv" type="Add" version="opset1">
			<data auto_broadcast="numpy" />
			<input>
				<port id="0" precision="FP32">
					<dim>32</dim>
					<dim>512</dim>
					<dim>4</dim>
					<dim>4</dim>
				</port>
				<port id="1" precision="FP32">
					<dim>1</dim>
					<dim>512</dim>
					<dim>1</dim>
					<dim>1</dim>
				</port>
			</input>
			<output>
				<port id="2" precision="FP32" names="/model/layer4/layer4.1/conv2/Conv_output_0">
					<dim>32</dim>
					<dim>512</dim>
					<dim>4</dim>
					<dim>4</dim>
				</port>
			</output>
		</layer>
		<layer id="256" name="/model/layer4/layer4.1/relu_1/Relu" type="ReLU" version="opset1">
			<input>
				<port id="0" precision="FP32">
					<dim>32</dim>
					<dim>512</dim>
					<dim>4</dim>
					<dim>4</dim>
				</port>
			</input>
			<output>
				<port id="1" precision="FP32" names="/model/layer4/layer4.1/relu_1/Relu_output_0">
					<dim>32</dim>
					<dim>512</dim>
					<dim>4</dim>
					<dim>4</dim>
				</port>
			</output>
		</layer>
		<layer id="257" name="onnx::Conv_654" type="Const" version="opset1">
			<data element_type="f32" shape="2048, 512, 1, 1" offset="23335424" size="4194304" />
			<output>
				<port id="0" precision="FP32" names="onnx::Conv_654">
					<dim>2048</dim>
					<dim>512</dim>
					<dim>1</dim>
					<dim>1</dim>
				</port>
			</output>
		</layer>
		<layer id="258" name="/model/layer4/layer4.1/conv3/Conv/WithoutBiases" type="Convolution" version="opset1">
			<data strides="1, 1" dilations="1, 1" pads_begin="0, 0" pads_end="0, 0" auto_pad="explicit" />
			<input>
				<port id="0" precision="FP32">
					<dim>32</dim>
					<dim>512</dim>
					<dim>4</dim>
					<dim>4</dim>
				</port>
				<port id="1" precision="FP32">
					<dim>2048</dim>
					<dim>512</dim>
					<dim>1</dim>
					<dim>1</dim>
				</port>
			</input>
			<output>
				<port id="2" precision="FP32">
					<dim>32</dim>
					<dim>2048</dim>
					<dim>4</dim>
					<dim>4</dim>
				</port>
			</output>
		</layer>
		<layer id="259" name="Reshape_922" type="Const" version="opset1">
			<data element_type="f32" shape="1, 2048, 1, 1" offset="27529728" size="8192" />
			<output>
				<port id="0" precision="FP32">
					<dim>1</dim>
					<dim>2048</dim>
					<dim>1</dim>
					<dim>1</dim>
				</port>
			</output>
		</layer>
		<layer id="260" name="/model/layer4/layer4.1/conv3/Conv" type="Add" version="opset1">
			<data auto_broadcast="numpy" />
			<input>
				<port id="0" precision="FP32">
					<dim>32</dim>
					<dim>2048</dim>
					<dim>4</dim>
					<dim>4</dim>
				</port>
				<port id="1" precision="FP32">
					<dim>1</dim>
					<dim>2048</dim>
					<dim>1</dim>
					<dim>1</dim>
				</port>
			</input>
			<output>
				<port id="2" precision="FP32" names="/model/layer4/layer4.1/conv3/Conv_output_0">
					<dim>32</dim>
					<dim>2048</dim>
					<dim>4</dim>
					<dim>4</dim>
				</port>
			</output>
		</layer>
		<layer id="261" name="/model/layer4/layer4.1/Add" type="Add" version="opset1">
			<data auto_broadcast="numpy" />
			<input>
				<port id="0" precision="FP32">
					<dim>32</dim>
					<dim>2048</dim>
					<dim>4</dim>
					<dim>4</dim>
				</port>
				<port id="1" precision="FP32">
					<dim>32</dim>
					<dim>2048</dim>
					<dim>4</dim>
					<dim>4</dim>
				</port>
			</input>
			<output>
				<port id="2" precision="FP32" names="/model/layer4/layer4.1/Add_output_0">
					<dim>32</dim>
					<dim>2048</dim>
					<dim>4</dim>
					<dim>4</dim>
				</port>
			</output>
		</layer>
		<layer id="262" name="/model/layer4/layer4.1/relu_2/Relu" type="ReLU" version="opset1">
			<input>
				<port id="0" precision="FP32">
					<dim>32</dim>
					<dim>2048</dim>
					<dim>4</dim>
					<dim>4</dim>
				</port>
			</input>
			<output>
				<port id="1" precision="FP32" names="/model/layer4/layer4.1/relu_2/Relu_output_0">
					<dim>32</dim>
					<dim>2048</dim>
					<dim>4</dim>
					<dim>4</dim>
				</port>
			</output>
		</layer>
		<layer id="263" name="onnx::Conv_657" type="Const" version="opset1">
			<data element_type="f32" shape="512, 2048, 1, 1" offset="23335424" size="4194304" />
			<output>
				<port id="0" precision="FP32" names="onnx::Conv_657">
					<dim>512</dim>
					<dim>2048</dim>
					<dim>1</dim>
					<dim>1</dim>
				</port>
			</output>
		</layer>
		<layer id="264" name="/model/layer4/layer4.2/conv1/Conv/WithoutBiases" type="Convolution" version="opset1">
			<data strides="1, 1" dilations="1, 1" pads_begin="0, 0" pads_end="0, 0" auto_pad="explicit" />
			<input>
				<port id="0" precision="FP32">
					<dim>32</dim>
					<dim>2048</dim>
					<dim>4</dim>
					<dim>4</dim>
				</port>
				<port id="1" precision="FP32">
					<dim>512</dim>
					<dim>2048</dim>
					<dim>1</dim>
					<dim>1</dim>
				</port>
			</input>
			<output>
				<port id="2" precision="FP32">
					<dim>32</dim>
					<dim>512</dim>
					<dim>4</dim>
					<dim>4</dim>
				</port>
			</output>
		</layer>
		<layer id="265" name="Reshape_939" type="Const" version="opset1">
			<data element_type="f32" shape="1, 512, 1, 1" offset="13896192" size="2048" />
			<output>
				<port id="0" precision="FP32">
					<dim>1</dim>
					<dim>512</dim>
					<dim>1</dim>
					<dim>1</dim>
				</port>
			</output>
		</layer>
		<layer id="266" name="/model/layer4/layer4.2/conv1/Conv" type="Add" version="opset1">
			<data auto_broadcast="numpy" />
			<input>
				<port id="0" precision="FP32">
					<dim>32</dim>
					<dim>512</dim>
					<dim>4</dim>
					<dim>4</dim>
				</port>
				<port id="1" precision="FP32">
					<dim>1</dim>
					<dim>512</dim>
					<dim>1</dim>
					<dim>1</dim>
				</port>
			</input>
			<output>
				<port id="2" precision="FP32" names="/model/layer4/layer4.2/conv1/Conv_output_0">
					<dim>32</dim>
					<dim>512</dim>
					<dim>4</dim>
					<dim>4</dim>
				</port>
			</output>
		</layer>
		<layer id="267" name="/model/layer4/layer4.2/relu/Relu" type="ReLU" version="opset1">
			<input>
				<port id="0" precision="FP32">
					<dim>32</dim>
					<dim>512</dim>
					<dim>4</dim>
					<dim>4</dim>
				</port>
			</input>
			<output>
				<port id="1" precision="FP32" names="/model/layer4/layer4.2/relu/Relu_output_0">
					<dim>32</dim>
					<dim>512</dim>
					<dim>4</dim>
					<dim>4</dim>
				</port>
			</output>
		</layer>
		<layer id="268" name="onnx::Conv_660" type="Const" version="opset1">
			<data element_type="f32" shape="512, 512, 3, 3" offset="13898240" size="9437184" />
			<output>
				<port id="0" precision="FP32" names="onnx::Conv_660">
					<dim>512</dim>
					<dim>512</dim>
					<dim>3</dim>
					<dim>3</dim>
				</port>
			</output>
		</layer>
		<layer id="269" name="/model/layer4/layer4.2/conv2/Conv/WithoutBiases" type="Convolution" version="opset1">
			<data strides="1, 1" dilations="1, 1" pads_begin="1, 1" pads_end="1, 1" auto_pad="explicit" />
			<input>
				<port id="0" precision="FP32">
					<dim>32</dim>
					<dim>512</dim>
					<dim>4</dim>
					<dim>4</dim>
				</port>
				<port id="1" precision="FP32">
					<dim>512</dim>
					<dim>512</dim>
					<dim>3</dim>
					<dim>3</dim>
				</port>
			</input>
			<output>
				<port id="2" precision="FP32">
					<dim>32</dim>
					<dim>512</dim>
					<dim>4</dim>
					<dim>4</dim>
				</port>
			</output>
		</layer>
		<layer id="270" name="Reshape_955" type="Const" version="opset1">
			<data element_type="f32" shape="1, 512, 1, 1" offset="13896192" size="2048" />
			<output>
				<port id="0" precision="FP32">
					<dim>1</dim>
					<dim>512</dim>
					<dim>1</dim>
					<dim>1</dim>
				</port>
			</output>
		</layer>
		<layer id="271" name="/model/layer4/layer4.2/conv2/Conv" type="Add" version="opset1">
			<data auto_broadcast="numpy" />
			<input>
				<port id="0" precision="FP32">
					<dim>32</dim>
					<dim>512</dim>
					<dim>4</dim>
					<dim>4</dim>
				</port>
				<port id="1" precision="FP32">
					<dim>1</dim>
					<dim>512</dim>
					<dim>1</dim>
					<dim>1</dim>
				</port>
			</input>
			<output>
				<port id="2" precision="FP32" names="/model/layer4/layer4.2/conv2/Conv_output_0">
					<dim>32</dim>
					<dim>512</dim>
					<dim>4</dim>
					<dim>4</dim>
				</port>
			</output>
		</layer>
		<layer id="272" name="/model/layer4/layer4.2/relu_1/Relu" type="ReLU" version="opset1">
			<input>
				<port id="0" precision="FP32">
					<dim>32</dim>
					<dim>512</dim>
					<dim>4</dim>
					<dim>4</dim>
				</port>
			</input>
			<output>
				<port id="1" precision="FP32" names="/model/layer4/layer4.2/relu_1/Relu_output_0">
					<dim>32</dim>
					<dim>512</dim>
					<dim>4</dim>
					<dim>4</dim>
				</port>
			</output>
		</layer>
		<layer id="273" name="onnx::Conv_663" type="Const" version="opset1">
			<data element_type="f32" shape="2048, 512, 1, 1" offset="23335424" size="4194304" />
			<output>
				<port id="0" precision="FP32" names="onnx::Conv_663">
					<dim>2048</dim>
					<dim>512</dim>
					<dim>1</dim>
					<dim>1</dim>
				</port>
			</output>
		</layer>
		<layer id="274" name="/model/layer4/layer4.2/conv3/Conv/WithoutBiases" type="Convolution" version="opset1">
			<data strides="1, 1" dilations="1, 1" pads_begin="0, 0" pads_end="0, 0" auto_pad="explicit" />
			<input>
				<port id="0" precision="FP32">
					<dim>32</dim>
					<dim>512</dim>
					<dim>4</dim>
					<dim>4</dim>
				</port>
				<port id="1" precision="FP32">
					<dim>2048</dim>
					<dim>512</dim>
					<dim>1</dim>
					<dim>1</dim>
				</port>
			</input>
			<output>
				<port id="2" precision="FP32">
					<dim>32</dim>
					<dim>2048</dim>
					<dim>4</dim>
					<dim>4</dim>
				</port>
			</output>
		</layer>
		<layer id="275" name="Reshape_971" type="Const" version="opset1">
			<data element_type="f32" shape="1, 2048, 1, 1" offset="27529728" size="8192" />
			<output>
				<port id="0" precision="FP32">
					<dim>1</dim>
					<dim>2048</dim>
					<dim>1</dim>
					<dim>1</dim>
				</port>
			</output>
		</layer>
		<layer id="276" name="/model/layer4/layer4.2/conv3/Conv" type="Add" version="opset1">
			<data auto_broadcast="numpy" />
			<input>
				<port id="0" precision="FP32">
					<dim>32</dim>
					<dim>2048</dim>
					<dim>4</dim>
					<dim>4</dim>
				</port>
				<port id="1" precision="FP32">
					<dim>1</dim>
					<dim>2048</dim>
					<dim>1</dim>
					<dim>1</dim>
				</port>
			</input>
			<output>
				<port id="2" precision="FP32" names="/model/layer4/layer4.2/conv3/Conv_output_0">
					<dim>32</dim>
					<dim>2048</dim>
					<dim>4</dim>
					<dim>4</dim>
				</port>
			</output>
		</layer>
		<layer id="277" name="/model/layer4/layer4.2/Add" type="Add" version="opset1">
			<data auto_broadcast="numpy" />
			<input>
				<port id="0" precision="FP32">
					<dim>32</dim>
					<dim>2048</dim>
					<dim>4</dim>
					<dim>4</dim>
				</port>
				<port id="1" precision="FP32">
					<dim>32</dim>
					<dim>2048</dim>
					<dim>4</dim>
					<dim>4</dim>
				</port>
			</input>
			<output>
				<port id="2" precision="FP32" names="/model/layer4/layer4.2/Add_output_0">
					<dim>32</dim>
					<dim>2048</dim>
					<dim>4</dim>
					<dim>4</dim>
				</port>
			</output>
		</layer>
		<layer id="278" name="/model/layer4/layer4.2/relu_2/Relu" type="ReLU" version="opset1">
			<input>
				<port id="0" precision="FP32">
					<dim>32</dim>
					<dim>2048</dim>
					<dim>4</dim>
					<dim>4</dim>
				</port>
			</input>
			<output>
				<port id="1" precision="FP32" names="/model/layer4/layer4.2/relu_2/Relu_output_0">
					<dim>32</dim>
					<dim>2048</dim>
					<dim>4</dim>
					<dim>4</dim>
				</port>
			</output>
		</layer>
		<layer id="279" name="Range_983" type="Const" version="opset1">
			<data element_type="i64" shape="2" offset="35926528" size="16" />
			<output>
				<port id="0" precision="I64">
					<dim>2</dim>
				</port>
			</output>
		</layer>
		<layer id="280" name="/model/avgpool/GlobalAveragePool" type="ReduceMean" version="opset1">
			<data keep_dims="true" />
			<input>
				<port id="0" precision="FP32">
					<dim>32</dim>
					<dim>2048</dim>
					<dim>4</dim>
					<dim>4</dim>
				</port>
				<port id="1" precision="I64">
					<dim>2</dim>
				</port>
			</input>
			<output>
				<port id="2" precision="FP32" names="/model/avgpool/GlobalAveragePool_output_0">
					<dim>32</dim>
					<dim>2048</dim>
					<dim>1</dim>
					<dim>1</dim>
				</port>
			</output>
		</layer>
		<layer id="281" name="Constant_987" type="Const" version="opset1">
			<data element_type="i64" shape="2" offset="35926544" size="16" />
			<output>
				<port id="0" precision="I64">
					<dim>2</dim>
				</port>
			</output>
		</layer>
		<layer id="282" name="/model/Flatten" type="Reshape" version="opset1">
			<data special_zero="true" />
			<input>
				<port id="0" precision="FP32">
					<dim>32</dim>
					<dim>2048</dim>
					<dim>1</dim>
					<dim>1</dim>
				</port>
				<port id="1" precision="I64">
					<dim>2</dim>
				</port>
			</input>
			<output>
				<port id="2" precision="FP32" names="/model/Flatten_output_0">
					<dim>32</dim>
					<dim>2048</dim>
				</port>
			</output>
		</layer>
		<layer id="283" name="Constant_2821" type="Const" version="opset1">
			<data element_type="f32" shape="1024, 2048" offset="27537920" size="8388608" />
			<output>
				<port id="0" precision="FP32">
					<dim>1024</dim>
					<dim>2048</dim>
				</port>
			</output>
		</layer>
		<layer id="284" name="Multiply_2810" type="MatMul" version="opset1">
			<data transpose_a="false" transpose_b="true" />
			<input>
				<port id="0" precision="FP32">
					<dim>32</dim>
					<dim>2048</dim>
				</port>
				<port id="1" precision="FP32">
					<dim>1024</dim>
					<dim>2048</dim>
				</port>
			</input>
			<output>
				<port id="2" precision="FP32">
					<dim>32</dim>
					<dim>1024</dim>
				</port>
			</output>
		</layer>
		<layer id="285" name="Constant_2815" type="Const" version="opset1">
			<data element_type="f32" shape="1, 1024" offset="9693696" size="4096" />
			<output>
				<port id="0" precision="FP32">
					<dim>1</dim>
					<dim>1024</dim>
				</port>
			</output>
		</layer>
		<layer id="286" name="/model/fc/fc.1/BatchNormalization" type="Add" version="opset1">
			<data auto_broadcast="numpy" />
			<input>
				<port id="0" precision="FP32">
					<dim>32</dim>
					<dim>1024</dim>
				</port>
				<port id="1" precision="FP32">
					<dim>1</dim>
					<dim>1024</dim>
				</port>
			</input>
			<output>
				<port id="2" precision="FP32" names="/model/fc/fc.1/BatchNormalization_output_0">
					<dim>32</dim>
					<dim>1024</dim>
				</port>
			</output>
		</layer>
		<layer id="287" name="/model/fc/fc.2/Relu" type="ReLU" version="opset1">
			<input>
				<port id="0" precision="FP32">
					<dim>32</dim>
					<dim>1024</dim>
				</port>
			</input>
			<output>
				<port id="1" precision="FP32" names="/model/fc/fc.2/Relu_output_0">
					<dim>32</dim>
					<dim>1024</dim>
				</port>
			</output>
		</layer>
		<layer id="288" name="model.fc.4.weight" type="Const" version="opset1">
			<data element_type="f32" shape="512, 1024" offset="35926560" size="2097152" />
			<output>
				<port id="0" precision="FP32" names="model.fc.4.weight">
					<dim>512</dim>
					<dim>1024</dim>
				</port>
			</output>
		</layer>
		<layer id="289" name="/model/fc/fc.4/Gemm/WithoutBiases" type="MatMul" version="opset1">
			<data transpose_a="false" transpose_b="true" />
			<input>
				<port id="0" precision="FP32">
					<dim>32</dim>
					<dim>1024</dim>
				</port>
				<port id="1" precision="FP32">
					<dim>512</dim>
					<dim>1024</dim>
				</port>
			</input>
			<output>
				<port id="2" precision="FP32">
					<dim>32</dim>
					<dim>512</dim>
				</port>
			</output>
		</layer>
		<layer id="290" name="Constant_2832" type="Const" version="opset1">
			<data element_type="f32" shape="1, 512" offset="38023712" size="2048" />
			<output>
				<port id="0" precision="FP32">
					<dim>1</dim>
					<dim>512</dim>
				</port>
			</output>
		</layer>
		<layer id="291" name="505" type="Add" version="opset1">
			<data auto_broadcast="numpy" />
			<input>
				<port id="0" precision="FP32">
					<dim>32</dim>
					<dim>512</dim>
				</port>
				<port id="1" precision="FP32">
					<dim>1</dim>
					<dim>512</dim>
				</port>
			</input>
			<output>
				<port id="2" precision="FP32" names="505">
					<dim>32</dim>
					<dim>512</dim>
				</port>
			</output>
		</layer>
		<layer id="292" name="505/sink_port_0" type="Result" version="opset1">
			<input>
				<port id="0" precision="FP32">
					<dim>32</dim>
					<dim>512</dim>
				</port>
			</input>
		</layer>
	</layers>
	<edges>
		<edge from-layer="0" from-port="0" to-layer="2" to-port="0" />
		<edge from-layer="1" from-port="0" to-layer="2" to-port="1" />
		<edge from-layer="2" from-port="2" to-layer="4" to-port="0" />
		<edge from-layer="3" from-port="0" to-layer="4" to-port="1" />
		<edge from-layer="4" from-port="2" to-layer="5" to-port="0" />
		<edge from-layer="5" from-port="1" to-layer="6" to-port="0" />
		<edge from-layer="6" from-port="1" to-layer="8" to-port="0" />
		<edge from-layer="6" from-port="1" to-layer="22" to-port="0" />
		<edge from-layer="7" from-port="0" to-layer="8" to-port="1" />
		<edge from-layer="8" from-port="2" to-layer="10" to-port="0" />
		<edge from-layer="9" from-port="0" to-layer="10" to-port="1" />
		<edge from-layer="10" from-port="2" to-layer="11" to-port="0" />
		<edge from-layer="11" from-port="1" to-layer="13" to-port="0" />
		<edge from-layer="12" from-port="0" to-layer="13" to-port="1" />
		<edge from-layer="13" from-port="2" to-layer="15" to-port="0" />
		<edge from-layer="14" from-port="0" to-layer="15" to-port="1" />
		<edge from-layer="15" from-port="2" to-layer="16" to-port="0" />
		<edge from-layer="16" from-port="1" to-layer="18" to-port="0" />
		<edge from-layer="17" from-port="0" to-layer="18" to-port="1" />
		<edge from-layer="18" from-port="2" to-layer="20" to-port="0" />
		<edge from-layer="19" from-port="0" to-layer="20" to-port="1" />
		<edge from-layer="20" from-port="2" to-layer="25" to-port="0" />
		<edge from-layer="21" from-port="0" to-layer="22" to-port="1" />
		<edge from-layer="22" from-port="2" to-layer="24" to-port="0" />
		<edge from-layer="23" from-port="0" to-layer="24" to-port="1" />
		<edge from-layer="24" from-port="2" to-layer="25" to-port="1" />
		<edge from-layer="25" from-port="2" to-layer="26" to-port="0" />
		<edge from-layer="26" from-port="1" to-layer="41" to-port="1" />
		<edge from-layer="26" from-port="1" to-layer="28" to-port="0" />
		<edge from-layer="27" from-port="0" to-layer="28" to-port="1" />
		<edge from-layer="28" from-port="2" to-layer="30" to-port="0" />
		<edge from-layer="29" from-port="0" to-layer="30" to-port="1" />
		<edge from-layer="30" from-port="2" to-layer="31" to-port="0" />
		<edge from-layer="31" from-port="1" to-layer="33" to-port="0" />
		<edge from-layer="32" from-port="0" to-layer="33" to-port="1" />
		<edge from-layer="33" from-port="2" to-layer="35" to-port="0" />
		<edge from-layer="34" from-port="0" to-layer="35" to-port="1" />
		<edge from-layer="35" from-port="2" to-layer="36" to-port="0" />
		<edge from-layer="36" from-port="1" to-layer="38" to-port="0" />
		<edge from-layer="37" from-port="0" to-layer="38" to-port="1" />
		<edge from-layer="38" from-port="2" to-layer="40" to-port="0" />
		<edge from-layer="39" from-port="0" to-layer="40" to-port="1" />
		<edge from-layer="40" from-port="2" to-layer="41" to-port="0" />
		<edge from-layer="41" from-port="2" to-layer="42" to-port="0" />
		<edge from-layer="42" from-port="1" to-layer="44" to-port="0" />
		<edge from-layer="42" from-port="1" to-layer="57" to-port="1" />
		<edge from-layer="43" from-port="0" to-layer="44" to-port="1" />
		<edge from-layer="44" from-port="2" to-layer="46" to-port="0" />
		<edge from-layer="45" from-port="0" to-layer="46" to-port="1" />
		<edge from-layer="46" from-port="2" to-layer="47" to-port="0" />
		<edge from-layer="47" from-port="1" to-layer="49" to-port="0" />
		<edge from-layer="48" from-port="0" to-layer="49" to-port="1" />
		<edge from-layer="49" from-port="2" to-layer="51" to-port="0" />
		<edge from-layer="50" from-port="0" to-layer="51" to-port="1" />
		<edge from-layer="51" from-port="2" to-layer="52" to-port="0" />
		<edge from-layer="52" from-port="1" to-layer="54" to-port="0" />
		<edge from-layer="53" from-port="0" to-layer="54" to-port="1" />
		<edge from-layer="54" from-port="2" to-layer="56" to-port="0" />
		<edge from-layer="55" from-port="0" to-layer="56" to-port="1" />
		<edge from-layer="56" from-port="2" to-layer="57" to-port="0" />
		<edge from-layer="57" from-port="2" to-layer="58" to-port="0" />
		<edge from-layer="58" from-port="1" to-layer="60" to-port="0" />
		<edge from-layer="58" from-port="1" to-layer="74" to-port="0" />
		<edge from-layer="59" from-port="0" to-layer="60" to-port="1" />
		<edge from-layer="60" from-port="2" to-layer="62" to-port="0" />
		<edge from-layer="61" from-port="0" to-layer="62" to-port="1" />
		<edge from-layer="62" from-port="2" to-layer="63" to-port="0" />
		<edge from-layer="63" from-port="1" to-layer="65" to-port="0" />
		<edge from-layer="64" from-port="0" to-layer="65" to-port="1" />
		<edge from-layer="65" from-port="2" to-layer="67" to-port="0" />
		<edge from-layer="66" from-port="0" to-layer="67" to-port="1" />
		<edge from-layer="67" from-port="2" to-layer="68" to-port="0" />
		<edge from-layer="68" from-port="1" to-layer="70" to-port="0" />
		<edge from-layer="69" from-port="0" to-layer="70" to-port="1" />
		<edge from-layer="70" from-port="2" to-layer="72" to-port="0" />
		<edge from-layer="71" from-port="0" to-layer="72" to-port="1" />
		<edge from-layer="72" from-port="2" to-layer="77" to-port="0" />
		<edge from-layer="73" from-port="0" to-layer="74" to-port="1" />
		<edge from-layer="74" from-port="2" to-layer="76" to-port="0" />
		<edge from-layer="75" from-port="0" to-layer="76" to-port="1" />
		<edge from-layer="76" from-port="2" to-layer="77" to-port="1" />
		<edge from-layer="77" from-port="2" to-layer="78" to-port="0" />
		<edge from-layer="78" from-port="1" to-layer="80" to-port="0" />
		<edge from-layer="78" from-port="1" to-layer="93" to-port="1" />
		<edge from-layer="79" from-port="0" to-layer="80" to-port="1" />
		<edge from-layer="80" from-port="2" to-layer="82" to-port="0" />
		<edge from-layer="81" from-port="0" to-layer="82" to-port="1" />
		<edge from-layer="82" from-port="2" to-layer="83" to-port="0" />
		<edge from-layer="83" from-port="1" to-layer="85" to-port="0" />
		<edge from-layer="84" from-port="0" to-layer="85" to-port="1" />
		<edge from-layer="85" from-port="2" to-layer="87" to-port="0" />
		<edge from-layer="86" from-port="0" to-layer="87" to-port="1" />
		<edge from-layer="87" from-port="2" to-layer="88" to-port="0" />
		<edge from-layer="88" from-port="1" to-layer="90" to-port="0" />
		<edge from-layer="89" from-port="0" to-layer="90" to-port="1" />
		<edge from-layer="90" from-port="2" to-layer="92" to-port="0" />
		<edge from-layer="91" from-port="0" to-layer="92" to-port="1" />
		<edge from-layer="92" from-port="2" to-layer="93" to-port="0" />
		<edge from-layer="93" from-port="2" to-layer="94" to-port="0" />
		<edge from-layer="94" from-port="1" to-layer="96" to-port="0" />
		<edge from-layer="94" from-port="1" to-layer="109" to-port="1" />
		<edge from-layer="95" from-port="0" to-layer="96" to-port="1" />
		<edge from-layer="96" from-port="2" to-layer="98" to-port="0" />
		<edge from-layer="97" from-port="0" to-layer="98" to-port="1" />
		<edge from-layer="98" from-port="2" to-layer="99" to-port="0" />
		<edge from-layer="99" from-port="1" to-layer="101" to-port="0" />
		<edge from-layer="100" from-port="0" to-layer="101" to-port="1" />
		<edge from-layer="101" from-port="2" to-layer="103" to-port="0" />
		<edge from-layer="102" from-port="0" to-layer="103" to-port="1" />
		<edge from-layer="103" from-port="2" to-layer="104" to-port="0" />
		<edge from-layer="104" from-port="1" to-layer="106" to-port="0" />
		<edge from-layer="105" from-port="0" to-layer="106" to-port="1" />
		<edge from-layer="106" from-port="2" to-layer="108" to-port="0" />
		<edge from-layer="107" from-port="0" to-layer="108" to-port="1" />
		<edge from-layer="108" from-port="2" to-layer="109" to-port="0" />
		<edge from-layer="109" from-port="2" to-layer="110" to-port="0" />
		<edge from-layer="110" from-port="1" to-layer="112" to-port="0" />
		<edge from-layer="110" from-port="1" to-layer="125" to-port="1" />
		<edge from-layer="111" from-port="0" to-layer="112" to-port="1" />
		<edge from-layer="112" from-port="2" to-layer="114" to-port="0" />
		<edge from-layer="113" from-port="0" to-layer="114" to-port="1" />
		<edge from-layer="114" from-port="2" to-layer="115" to-port="0" />
		<edge from-layer="115" from-port="1" to-layer="117" to-port="0" />
		<edge from-layer="116" from-port="0" to-layer="117" to-port="1" />
		<edge from-layer="117" from-port="2" to-layer="119" to-port="0" />
		<edge from-layer="118" from-port="0" to-layer="119" to-port="1" />
		<edge from-layer="119" from-port="2" to-layer="120" to-port="0" />
		<edge from-layer="120" from-port="1" to-layer="122" to-port="0" />
		<edge from-layer="121" from-port="0" to-layer="122" to-port="1" />
		<edge from-layer="122" from-port="2" to-layer="124" to-port="0" />
		<edge from-layer="123" from-port="0" to-layer="124" to-port="1" />
		<edge from-layer="124" from-port="2" to-layer="125" to-port="0" />
		<edge from-layer="125" from-port="2" to-layer="126" to-port="0" />
		<edge from-layer="126" from-port="1" to-layer="128" to-port="0" />
		<edge from-layer="126" from-port="1" to-layer="142" to-port="0" />
		<edge from-layer="127" from-port="0" to-layer="128" to-port="1" />
		<edge from-layer="128" from-port="2" to-layer="130" to-port="0" />
		<edge from-layer="129" from-port="0" to-layer="130" to-port="1" />
		<edge from-layer="130" from-port="2" to-layer="131" to-port="0" />
		<edge from-layer="131" from-port="1" to-layer="133" to-port="0" />
		<edge from-layer="132" from-port="0" to-layer="133" to-port="1" />
		<edge from-layer="133" from-port="2" to-layer="135" to-port="0" />
		<edge from-layer="134" from-port="0" to-layer="135" to-port="1" />
		<edge from-layer="135" from-port="2" to-layer="136" to-port="0" />
		<edge from-layer="136" from-port="1" to-layer="138" to-port="0" />
		<edge from-layer="137" from-port="0" to-layer="138" to-port="1" />
		<edge from-layer="138" from-port="2" to-layer="140" to-port="0" />
		<edge from-layer="139" from-port="0" to-layer="140" to-port="1" />
		<edge from-layer="140" from-port="2" to-layer="145" to-port="0" />
		<edge from-layer="141" from-port="0" to-layer="142" to-port="1" />
		<edge from-layer="142" from-port="2" to-layer="144" to-port="0" />
		<edge from-layer="143" from-port="0" to-layer="144" to-port="1" />
		<edge from-layer="144" from-port="2" to-layer="145" to-port="1" />
		<edge from-layer="145" from-port="2" to-layer="146" to-port="0" />
		<edge from-layer="146" from-port="1" to-layer="148" to-port="0" />
		<edge from-layer="146" from-port="1" to-layer="161" to-port="1" />
		<edge from-layer="147" from-port="0" to-layer="148" to-port="1" />
		<edge from-layer="148" from-port="2" to-layer="150" to-port="0" />
		<edge from-layer="149" from-port="0" to-layer="150" to-port="1" />
		<edge from-layer="150" from-port="2" to-layer="151" to-port="0" />
		<edge from-layer="151" from-port="1" to-layer="153" to-port="0" />
		<edge from-layer="152" from-port="0" to-layer="153" to-port="1" />
		<edge from-layer="153" from-port="2" to-layer="155" to-port="0" />
		<edge from-layer="154" from-port="0" to-layer="155" to-port="1" />
		<edge from-layer="155" from-port="2" to-layer="156" to-port="0" />
		<edge from-layer="156" from-port="1" to-layer="158" to-port="0" />
		<edge from-layer="157" from-port="0" to-layer="158" to-port="1" />
		<edge from-layer="158" from-port="2" to-layer="160" to-port="0" />
		<edge from-layer="159" from-port="0" to-layer="160" to-port="1" />
		<edge from-layer="160" from-port="2" to-layer="161" to-port="0" />
		<edge from-layer="161" from-port="2" to-layer="162" to-port="0" />
		<edge from-layer="162" from-port="1" to-layer="164" to-port="0" />
		<edge from-layer="162" from-port="1" to-layer="177" to-port="1" />
		<edge from-layer="163" from-port="0" to-layer="164" to-port="1" />
		<edge from-layer="164" from-port="2" to-layer="166" to-port="0" />
		<edge from-layer="165" from-port="0" to-layer="166" to-port="1" />
		<edge from-layer="166" from-port="2" to-layer="167" to-port="0" />
		<edge from-layer="167" from-port="1" to-layer="169" to-port="0" />
		<edge from-layer="168" from-port="0" to-layer="169" to-port="1" />
		<edge from-layer="169" from-port="2" to-layer="171" to-port="0" />
		<edge from-layer="170" from-port="0" to-layer="171" to-port="1" />
		<edge from-layer="171" from-port="2" to-layer="172" to-port="0" />
		<edge from-layer="172" from-port="1" to-layer="174" to-port="0" />
		<edge from-layer="173" from-port="0" to-layer="174" to-port="1" />
		<edge from-layer="174" from-port="2" to-layer="176" to-port="0" />
		<edge from-layer="175" from-port="0" to-layer="176" to-port="1" />
		<edge from-layer="176" from-port="2" to-layer="177" to-port="0" />
		<edge from-layer="177" from-port="2" to-layer="178" to-port="0" />
		<edge from-layer="178" from-port="1" to-layer="180" to-port="0" />
		<edge from-layer="178" from-port="1" to-layer="193" to-port="1" />
		<edge from-layer="179" from-port="0" to-layer="180" to-port="1" />
		<edge from-layer="180" from-port="2" to-layer="182" to-port="0" />
		<edge from-layer="181" from-port="0" to-layer="182" to-port="1" />
		<edge from-layer="182" from-port="2" to-layer="183" to-port="0" />
		<edge from-layer="183" from-port="1" to-layer="185" to-port="0" />
		<edge from-layer="184" from-port="0" to-layer="185" to-port="1" />
		<edge from-layer="185" from-port="2" to-layer="187" to-port="0" />
		<edge from-layer="186" from-port="0" to-layer="187" to-port="1" />
		<edge from-layer="187" from-port="2" to-layer="188" to-port="0" />
		<edge from-layer="188" from-port="1" to-layer="190" to-port="0" />
		<edge from-layer="189" from-port="0" to-layer="190" to-port="1" />
		<edge from-layer="190" from-port="2" to-layer="192" to-port="0" />
		<edge from-layer="191" from-port="0" to-layer="192" to-port="1" />
		<edge from-layer="192" from-port="2" to-layer="193" to-port="0" />
		<edge from-layer="193" from-port="2" to-layer="194" to-port="0" />
		<edge from-layer="194" from-port="1" to-layer="209" to-port="1" />
		<edge from-layer="194" from-port="1" to-layer="196" to-port="0" />
		<edge from-layer="195" from-port="0" to-layer="196" to-port="1" />
		<edge from-layer="196" from-port="2" to-layer="198" to-port="0" />
		<edge from-layer="197" from-port="0" to-layer="198" to-port="1" />
		<edge from-layer="198" from-port="2" to-layer="199" to-port="0" />
		<edge from-layer="199" from-port="1" to-layer="201" to-port="0" />
		<edge from-layer="200" from-port="0" to-layer="201" to-port="1" />
		<edge from-layer="201" from-port="2" to-layer="203" to-port="0" />
		<edge from-layer="202" from-port="0" to-layer="203" to-port="1" />
		<edge from-layer="203" from-port="2" to-layer="204" to-port="0" />
		<edge from-layer="204" from-port="1" to-layer="206" to-port="0" />
		<edge from-layer="205" from-port="0" to-layer="206" to-port="1" />
		<edge from-layer="206" from-port="2" to-layer="208" to-port="0" />
		<edge from-layer="207" from-port="0" to-layer="208" to-port="1" />
		<edge from-layer="208" from-port="2" to-layer="209" to-port="0" />
		<edge from-layer="209" from-port="2" to-layer="210" to-port="0" />
		<edge from-layer="210" from-port="1" to-layer="225" to-port="1" />
		<edge from-layer="210" from-port="1" to-layer="212" to-port="0" />
		<edge from-layer="211" from-port="0" to-layer="212" to-port="1" />
		<edge from-layer="212" from-port="2" to-layer="214" to-port="0" />
		<edge from-layer="213" from-port="0" to-layer="214" to-port="1" />
		<edge from-layer="214" from-port="2" to-layer="215" to-port="0" />
		<edge from-layer="215" from-port="1" to-layer="217" to-port="0" />
		<edge from-layer="216" from-port="0" to-layer="217" to-port="1" />
		<edge from-layer="217" from-port="2" to-layer="219" to-port="0" />
		<edge from-layer="218" from-port="0" to-layer="219" to-port="1" />
		<edge from-layer="219" from-port="2" to-layer="220" to-port="0" />
		<edge from-layer="220" from-port="1" to-layer="222" to-port="0" />
		<edge from-layer="221" from-port="0" to-layer="222" to-port="1" />
		<edge from-layer="222" from-port="2" to-layer="224" to-port="0" />
		<edge from-layer="223" from-port="0" to-layer="224" to-port="1" />
		<edge from-layer="224" from-port="2" to-layer="225" to-port="0" />
		<edge from-layer="225" from-port="2" to-layer="226" to-port="0" />
		<edge from-layer="226" from-port="1" to-layer="242" to-port="0" />
		<edge from-layer="226" from-port="1" to-layer="228" to-port="0" />
		<edge from-layer="227" from-port="0" to-layer="228" to-port="1" />
		<edge from-layer="228" from-port="2" to-layer="230" to-port="0" />
		<edge from-layer="229" from-port="0" to-layer="230" to-port="1" />
		<edge from-layer="230" from-port="2" to-layer="231" to-port="0" />
		<edge from-layer="231" from-port="1" to-layer="233" to-port="0" />
		<edge from-layer="232" from-port="0" to-layer="233" to-port="1" />
		<edge from-layer="233" from-port="2" to-layer="235" to-port="0" />
		<edge from-layer="234" from-port="0" to-layer="235" to-port="1" />
		<edge from-layer="235" from-port="2" to-layer="236" to-port="0" />
		<edge from-layer="236" from-port="1" to-layer="238" to-port="0" />
		<edge from-layer="237" from-port="0" to-layer="238" to-port="1" />
		<edge from-layer="238" from-port="2" to-layer="240" to-port="0" />
		<edge from-layer="239" from-port="0" to-layer="240" to-port="1" />
		<edge from-layer="240" from-port="2" to-layer="245" to-port="0" />
		<edge from-layer="241" from-port="0" to-layer="242" to-port="1" />
		<edge from-layer="242" from-port="2" to-layer="244" to-port="0" />
		<edge from-layer="243" from-port="0" to-layer="244" to-port="1" />
		<edge from-layer="244" from-port="2" to-layer="245" to-port="1" />
		<edge from-layer="245" from-port="2" to-layer="246" to-port="0" />
		<edge from-layer="246" from-port="1" to-layer="248" to-port="0" />
		<edge from-layer="246" from-port="1" to-layer="261" to-port="1" />
		<edge from-layer="247" from-port="0" to-layer="248" to-port="1" />
		<edge from-layer="248" from-port="2" to-layer="250" to-port="0" />
		<edge from-layer="249" from-port="0" to-layer="250" to-port="1" />
		<edge from-layer="250" from-port="2" to-layer="251" to-port="0" />
		<edge from-layer="251" from-port="1" to-layer="253" to-port="0" />
		<edge from-layer="252" from-port="0" to-layer="253" to-port="1" />
		<edge from-layer="253" from-port="2" to-layer="255" to-port="0" />
		<edge from-layer="254" from-port="0" to-layer="255" to-port="1" />
		<edge from-layer="255" from-port="2" to-layer="256" to-port="0" />
		<edge from-layer="256" from-port="1" to-layer="258" to-port="0" />
		<edge from-layer="257" from-port="0" to-layer="258" to-port="1" />
		<edge from-layer="258" from-port="2" to-layer="260" to-port="0" />
		<edge from-layer="259" from-port="0" to-layer="260" to-port="1" />
		<edge from-layer="260" from-port="2" to-layer="261" to-port="0" />
		<edge from-layer="261" from-port="2" to-layer="262" to-port="0" />
		<edge from-layer="262" from-port="1" to-layer="277" to-port="1" />
		<edge from-layer="262" from-port="1" to-layer="264" to-port="0" />
		<edge from-layer="263" from-port="0" to-layer="264" to-port="1" />
		<edge from-layer="264" from-port="2" to-layer="266" to-port="0" />
		<edge from-layer="265" from-port="0" to-layer="266" to-port="1" />
		<edge from-layer="266" from-port="2" to-layer="267" to-port="0" />
		<edge from-layer="267" from-port="1" to-layer="269" to-port="0" />
		<edge from-layer="268" from-port="0" to-layer="269" to-port="1" />
		<edge from-layer="269" from-port="2" to-layer="271" to-port="0" />
		<edge from-layer="270" from-port="0" to-layer="271" to-port="1" />
		<edge from-layer="271" from-port="2" to-layer="272" to-port="0" />
		<edge from-layer="272" from-port="1" to-layer="274" to-port="0" />
		<edge from-layer="273" from-port="0" to-layer="274" to-port="1" />
		<edge from-layer="274" from-port="2" to-layer="276" to-port="0" />
		<edge from-layer="275" from-port="0" to-layer="276" to-port="1" />
		<edge from-layer="276" from-port="2" to-layer="277" to-port="0" />
		<edge from-layer="277" from-port="2" to-layer="278" to-port="0" />
		<edge from-layer="278" from-port="1" to-layer="280" to-port="0" />
		<edge from-layer="279" from-port="0" to-layer="280" to-port="1" />
		<edge from-layer="280" from-port="2" to-layer="282" to-port="0" />
		<edge from-layer="281" from-port="0" to-layer="282" to-port="1" />
		<edge from-layer="282" from-port="2" to-layer="284" to-port="0" />
		<edge from-layer="283" from-port="0" to-layer="284" to-port="1" />
		<edge from-layer="284" from-port="2" to-layer="286" to-port="0" />
		<edge from-layer="285" from-port="0" to-layer="286" to-port="1" />
		<edge from-layer="286" from-port="2" to-layer="287" to-port="0" />
		<edge from-layer="287" from-port="1" to-layer="289" to-port="0" />
		<edge from-layer="288" from-port="0" to-layer="289" to-port="1" />
		<edge from-layer="289" from-port="2" to-layer="291" to-port="0" />
		<edge from-layer="290" from-port="0" to-layer="291" to-port="1" />
		<edge from-layer="291" from-port="2" to-layer="292" to-port="0" />
	</edges>
	<rt_info>
		<MO_version value="2023.0.2-11065-e662b1a3301-releases/2023/0" />
		<Runtime_version value="2023.0.2-11065-e662b1a3301-releases/2023/0" />
		<conversion_parameters>
			<input_model value="DIR/resnet.onnx" />
			<is_python_api_used value="True" />
		</conversion_parameters>
		<legacy_frontend value="False" />
	</rt_info>
</net>
